save/FNN.pth (torch, 584729 bytes, 32 tensors)

weight f4 [20, 2]
0.81228787 -1.4572297 -0.3795867 -1.5676559 -0.5248708 -0.624217 -0.8655155 -1.0194393
0.5316297 -0.4263198 0.9950076 -0.38429236 1.5843643 -1.6462852 1.9392439 -0.1564067
-1.6166734 -1.0508567 -0.6411064 -0.045548987 1.0307404 1.2166001 -1.3569344 -1.3476954
1.328803 1.7491597 -1.1598729 -1.5185446 -1.113323 1.1324296 1.3020216 -1.285483
-0.4426434 0.28057733 0.44516274 -0.8342989 -1.0325031 0.11398035 -0.6129585 -1.0148553
00000000: 19f2 4f3f 8186 babf 3059 c2be f3a8 c8bf
00000010: ef5d 06bf afcc 1fbf 6c92 5dbf fd7c 82bf
00000020: e218 083f 9746 dabe d1b8 7e3f f8c1 c4be
00000030: 73cc ca3f 79b9 d2bf 2539 f83f 1429 20be
00000040: 27ef cebf 7982 86bf 8d1f 24bf 9391 3abd
00000050: 4def 833f 8db9 9b3f 07b0 adbf 4881 acbf
00000060: 3716 aa3f 77e4 df3f b776 94bf ab5f c2bf
00000070: 5e81 8ebf 74f3 903f a5a8 a63f b58a a4bf
00000080: 28a2 e2be d5a7 8f3e 5fec e33e 9d94 55bf
00000090: 1029 84bf 886e e93d d9ea 1cbf c7e6 81bf

bias f4 [20]
-0.10651658 -0.14095202 0.06913151 -0.11366504 -0.07045125 -0.087589115 -0.36327153 0.6065522
0.11563984 -0.21392545 -0.18900928 -0.05903127 0.2063681 -0.08148923 0.20770127 0.254687
0.25215358 -0.01649049 0.021586258 -0.08326496
00000000: 5d25 dabd ba55 10be d294 8d3d 37c9 e8bd
00000010: bf48 90bd ec61 b3bd bafe b9be 0147 1b3f
00000020: 95d4 ec3d 460f 5bbe a68b 41be c6ca 71bd
00000030: 2952 533e d3e3 a6bd a4af 543e 5666 823e
00000040: 461a 813e 1017 87bc aad5 b03c d286 aabd

weight f4 [20, 20]
-0.2837305 0.23890686 0.29116493 0.114106655 -0.15535298 0.05706876 0.35986525 -0.30100983
-0.037571732 -0.57877415 -0.24684067 0.47352937 0.26131967 -0.2692425 0.33541074 -0.41498172
-0.13637015 0.060177546 -0.02166719 0.38503513 -0.4658354 0.09809297 0.35370475 0.30690172
0.55755156 -0.25456813 0.016340952 0.26151627 -0.2661994 0.005373338 0.26676813 -0.17986943
-0.3081036 -0.48792526 -0.2946935 0.4660177 -0.5308877 0.18623985 -0.28407735 -0.43420345
-0.39927825 -0.402802 0.32377878 0.070379086 -0.37593877 -0.490974 0.012681694 0.077350765
0.30275977 0.33677 -0.44621766 0.20990576 0.62376726 0.2471679 0.5007572 0.44753116
0.41052437 0.10721964 0.6063353 0.25568768 0.16638164 0.06756046 0.059720553 -0.5121537
-0.60226196 -0.45788756 0.096022904 -0.29525945 0.069485195 -0.3978131 -0.48416027 -0.35841328
0.22262183 0.018195668 0.26986194 -0.3486114 0.14590748 -0.1054324 0.35853356 -0.5227698
-0.22642112 0.4418212 -0.077057 -0.41877308 -0.33343238 0.112760335 -0.017269326 -0.44055256
0.5834264 -0.43546155 0.12850913 -0.38193536 -0.5196995 -0.5133991 0.4458517 0.055139314
-0.3457086 0.0022159684 -0.4764397 -0.5543572 -0.14248767 0.010159824 0.02602927 0.40355662
0.4298855 -0.09097628 -0.25723225 -0.359311 0.36240733 -0.41415936 -0.40708703 0.22624181
0.42621782 0.10350492 0.009743977 0.0993735 -0.91206694 0.4083033 -0.444519 -0.06586976
-0.15187508 0.361901 0.64507866 -0.41245344 -0.19689946 -0.043427207 -0.14551567 0.26917303
-0.55303377 0.21107237 0.15513694 -0.17727144 0.4561665 -0.025283415 0.50431865 -0.2962514
0.14093962 -0.051817104 0.55712295 0.39978802 0.040813297 0.13334027 -0.37794536 -0.09437706
-0.36193776 -0.3942965 0.60284615 -0.7193429 -0.4573286 0.2938233 -0.28145733 0.631246
0.0012039361 0.10881244 0.026754856 0.35768607 -0.60767853 0.07873354 0.37794355 0.3661063
-0.23513293 0.008226687 0.016940126 -0.32773367 0.2732462 0.005336571 0.12143511 0.24680395
0.29504174 -0.58192104 0.33775914 0.4247661 -0.22978918 -0.4249506 -0.5836942 -0.10422243
0.26411906 0.17918594 0.32979736 0.2519561 0.37323457 0.48106006 -0.1923186 -0.009695025
0.2840611 0.16510296 -0.4060709 -0.1871307 -0.2106424 -0.18667713 -0.35783848 -0.044143908
0.32092023 0.23963302 -0.49470007 -0.4630647 0.0002756199 -0.44124362 -0.4765264 -0.09803158
-0.41419044 -0.4456168 0.019419497 0.50127673 -0.3283479 -0.27238125 0.43384174 0.16996844
-0.10284082 0.31073162 0.14581405 -0.3228606 0.47112122 -0.5164372 0.34163874 -0.29165408
1.0448848 -0.4831727 -0.44571543 0.044821173 0.35270616 -0.51446015 -0.24987397 0.048063096
-0.35894978 0.3441525 0.28766316 -0.19417031 0.048763484 0.48652014 -0.019487701 -0.4709321
0.075964294 -0.351232 0.32526696 0.46938288 0.23068179 0.47603637 -0.12286666 0.27058476
0.3327161 -0.4335084 0.50337285 0.0018228379 0.27093923 -0.21491313 -0.32922748 -0.06953961
-0.07175374 0.3786715 0.27631235 0.4330676 0.44051078 0.0006776532 -0.49768752 -0.11008888
00000000: 2045 91be 00a4 743e 9213 953e c0b0 e93d
00000010: da14 1fbe efc0 693d 4240 b83e f61d 9abe
00000020: d1e4 19bd 8b2a 14bf cdc3 7cbe 7172 f23e
00000030: b1cb 853e 27da 89be f5ba ab3e 7c78 d4be
00000040: 9ea4 0bbe bb7c 763d 647f b1bc 5323 c53e
00000050: fa81 eebe f8e4 c83d ca18 b53e 3922 9d3e
00000060: b3bb 0e3f c156 82be 76dd 853c 76e5 853e
00000070: 4a4b 88be d312 b03b d595 883e b12f 38be
00000080: c1bf 9dbe 57d1 f9be 11e2 96be df99 ee3e
00000090: 42e8 07bf a9b5 3e3e 9672 91be ea4f debe
000000a0: 336e ccbe 103c cebe 55c6 a53e e922 903d
000000b0: 0c7b c0be f260 fbbe e1c6 4f3c 146a 9e3d
000000c0: 5403 9b3e 1e6d ac3e a476 e4be 89f1 563e
000000d0: 36af 1f3f 9519 7d3e a031 003f ce22 e53e
000000e0: 4030 d23e f895 db3d ca38 1b3f 7fe9 823e
000000f0: f35f 2a3e 235d 8a3d 8a9d 743d 811c 03bf
00000100: d72d 1abf 3d70 eabe a8a7 c43d 3f2c 97be
00000110: 414e 8e3d 29ae cbbe dbe3 f7be f281 b7be
00000120: faf6 633e 150f 953c 582b 8a3e 327d b2be
00000130: c568 153e f1ec d7bd b691 b73e 3ed4 05bf
00000140: f0da 67be 6336 e23e 0fd0 9dbd 6d69 d6be
00000150: a6b7 aabe e4ee e63d 6778 8dbc 1b90 e1be
00000160: 6f5b 153f d1f4 debe e697 033e 088d c3be
00000170: 070b 05bf 206e 03bf ad46 e43e c3d9 613d
00000180: b800 b1be c839 113b e8ef f3be 5aea 0dbf
00000190: 4ae8 11be 6475 263c 563b d53c f99e ce3e
000001a0: f419 dc3e c651 babd f2b3 83be 9df7 b7be
000001b0: 748d b93e b20c d4be b66d d0be efab 673e
000001c0: 3939 da3e 63fa d33d 34a5 1f3c 5584 cb3d
000001d0: 387d 69bf 210d d13e ff97 e3be bae6 86bd
000001e0: 2485 1bbe 164b b93e e023 253f 192d d3be
000001f0: 03a0 49be bae0 31bd 0f02 15be 0cd1 893e
00000200: 9f93 0dbf 5b23 583e 38dc 1e3e a586 35be
00000210: a88e e93e 2a1f cfbc 071b 013f 43ae 97be
00000220: 7a52 103e 2c3e 54bd 9c9f 0e3f 04b1 cc3e
00000230: d82b 273d 5a8a 083e 0e82 c1be c348 c1bd
00000240: e84f b9be 3be1 c9be 2054 1a3f db26 38bf
00000250: f926 eabe 0270 963e 2d1b 90be 5699 213f
00000260: 64cd 9d3a 0ed9 de3d 002d db3c a122 b73e
00000270: d290 1bbf 0d3f a13d d181 c13e 4972 bb3e
00000280: b0c6 70be 3ac9 063c 05c6 8a3c b5cc a7be
00000290: ede6 8b3e 67de ae3b f9b2 f83d 2dba 7c3e
000002a0: b60f 973e c7f8 14bf c4ee ac3e f17a d93e
000002b0: db4d 6bbe 2093 d9be fc6c 15bf 9272 d5bd
000002c0: 9d3a 873e 857c 373e 33db a83e 6400 813e
000002d0: 9a18 bf3e 814d f63e 2bef 44be e2d7 1ebc
000002e0: 7570 913e c010 293e 86e8 cfbe 319f 3fbe
000002f0: a4b2 57be 4a28 3fbe 9b36 b7be 3ed0 34bd
00000300: a84f a43e 5c62 753e 5449 fdbe d116 edbe
00000310: 1481 9039 afea e1be 45fb f3be c8c4 c8bd
00000320: c510 d4be e327 e4be a315 9f3c ac53 003f
00000330: 371d a8be 8e75 8bbe 8120 de3e 350c 2e3e
00000340: 359e d2bd 3718 9f3e 4750 153e fc4d a5be
00000350: cd36 f13e 3a35 04bf 46eb ae3e af53 95be
00000360: c9be 853f 6a62 f7be d034 e4be 6896 373d
00000370: e795 b43e a9b3 03bf f6de 7fbe cfdd 443d
00000380: 44c8 b7be c234 b03e 9648 933e 95d4 46be
00000390: 38bc 473d 2b19 f93e aca4 9fbc 031e f1be
000003a0: 2b93 9b3d aed4 b3be 6489 a63e f452 f03e
000003b0: d937 6c3e 0abb f33e 84a1 fbbd 168a 8a3e
000003c0: c459 aa3e d0f4 ddbe 0bdd 003f 4aec ee3a
000003d0: 8cb8 8a3e 3012 5cbe 8190 a8be c86a 8ebd
000003e0: a0f3 92bd 3be1 c13e d078 8d3e 09bb dd3e
000003f0: a18a e13e 89a4 313a e6d0 febe 4776 e1bd

bias f4 [20]
0.041788734 0.02022942 0.20370702 0.053676672 0.16551636 -0.26101592 0.034470215 -0.253051
8.798753e-05 0.012552116 0.3357102 0.042827208 0.041353863 -0.17398585 0.05133036 -0.039899297
-0.25725552 -0.048989642 -0.112744056 0.04698147
00000000: aa2a 2b3d 2bb8 a53c 9398 503e 12dc 5b3d
00000010: 1f7d 293e e1a3 85be a430 0d3d e78f 81be
00000020: f285 b838 64a7 4d3c 35e2 ab3e 956b 2f3d
00000030: ab62 293d 5929 32be c93f 523d 726d 23bd
00000040: ffb6 83be 5da9 48bd 5be6 e6bd a46f 403d

weight f4 [20, 20]
0.0661945 0.380684 0.34002244 -0.12075622 0.103090696 -0.20395033 -0.20308593 0.41286284
0.42098185 0.50806457 -0.38825592 -0.40158436 -0.16393392 -0.22814593 0.4508672 -0.12277709
0.47504714 -0.037575506 -0.3926991 0.032861073 -0.007943171 0.330862 -0.3581165 -0.030132608
0.40572885 -0.2240428 0.39849672 -0.5475525 0.3174046 -0.25135997 -0.5156633 -0.33855802
-0.123325974 -0.0724918 0.28294662 -0.19981183 -0.08514258 -0.34372452 0.40867463 -0.6091372
0.15247957 0.39424136 0.100228764 0.13913384 -0.51519364 0.29212162 0.6334512 -0.3877344
-0.37926283 -0.43824267 0.029974477 0.32434076 0.46818128 0.40480134 0.2887247 1.0194322
0.33028838 -0.5073157 0.029097525 0.21675856 -0.16660309 0.42758575 0.52224106 -0.2761371
0.39813974 0.5668216 -0.16805488 0.34720388 0.18863235 -0.40236712 -0.018545853 0.36424774
0.22092484 0.44718558 -0.02190586 -0.7390589 -0.15990725 0.37415463 -0.43971 0.39254445
0.36906168 -0.10388036 0.060627274 -0.5473592 0.040112704 0.004539195 0.36213592 -0.1599888
-0.1919648 0.34484628 -0.35710192 -0.55018616 0.25658795 0.17194295 0.37032935 -0.7410528
-0.32827923 -0.14979838 -0.14880244 0.30692828 -0.37528872 -0.13448703 -0.25611615 -0.7862296
-0.3610583 0.60180986 -0.63658005 0.5431309 -0.32037702 -0.018475119 -0.63808465 -0.35484812
0.44404027 0.14374207 -0.29722443 0.2287037 -0.28803775 0.04596691 -0.32732388 -0.46820024
-0.36891016 -0.28050953 -0.39564964 -0.073058 0.4675171 -0.45384043 0.6102857 0.37170473
-0.3912687 0.25815338 0.5145268 0.18484318 -0.34859532 0.35233715 0.25139165 1.0396343
0.45859927 0.16979156 -0.04911311 0.2165109 -0.37974444 -0.16646825 0.011067072 -0.16733156
0.25202316 -0.21964805 0.06315495 -0.3299833 -0.1517215 0.21257804 0.05308578 -0.31110078
0.17181857 0.38389763 -0.58060086 -0.3753726 -0.18381852 0.13470995 0.2058232 -0.013590093
-0.36131328 0.24599846 0.31963962 0.45427015 0.06475862 0.19329314 0.12433173 0.008820847
-0.41862726 0.529591 0.38577765 0.504159 0.22441566 0.01503679 0.41989776 0.0258694
0.019642849 0.2735899 0.34810185 0.12662587 -0.14903052 0.47017798 -0.28762832 -0.30510715
-0.45723942 -0.27518827 -0.2451705 -0.11160887 -0.076876156 -0.14323927 0.5022252 0.33879688
0.08782184 -0.39007348 -0.044162452 -0.3375511 0.23068196 0.428782 0.10336172 0.46145347
0.20265931 0.10530963 0.42762187 0.025366452 0.56862706 -0.0039293235 0.08584852 0.04083702
0.15815115 -0.30205792 0.2248288 -0.030226063 -0.08188474 -0.008377128 -0.19367276 0.58752954
-0.048440088 0.42222175 -0.1251896 -0.08004765 0.185017 0.036669176 -0.35873142 -0.12443943
0.21600236 -0.39108756 0.4070298 -0.3261557 -0.25665557 -0.07427429 0.17481895 -0.4010927
0.53180796 -0.42404696 -0.2027956 -0.12734868 -0.00430685 0.14633688 0.2837136 0.33412197
0.49385512 0.09996339 -0.4162866 -0.09463068 -0.373572 -0.4710157 -0.3362677 0.42350602
-0.11856544 0.48595333 -0.29419526 -0.03815102 0.26478443 -0.13941364 -0.08014143 -0.11691546
00000000: fb90 873d 03e9 c23e 6c17 ae3e 094f f7bd
00000010: 3721 d33d 5bd8 50be c2f5 4fbe c262 d33e
00000020: ef8a d73e 8510 023f 7bc9 c6be 779c cdbe
00000030: 4bde 27be 169f 69be 11d8 e63e 8e72 fbbd
00000040: 6139 f33e c6e8 19bd db0f c9be 5599 063d
00000050: 1324 02bc be66 a93e 0c5b b7be a9d8 f6bc
00000060: b1bb cf3e 7a6b 65be c307 cc3e 672c 0cbf
00000070: db82 a23e 41b2 80be 8302 04bf 7a57 adbe
00000080: 5492 fcbd 9576 94bd 61de 903e 799b 4cbe
00000090: 3c5f aebd a9fc afbe cd3d d13e 6af0 1bbf
000000a0: 9b23 1c3e 01da c93e bd44 cd3d 1a79 0e3e
000000b0: bbe3 03bf f790 953e dc29 223f 2085 c6be
000000c0: bd2e c2be 5861 e0be 098d f53c fe0f a63e
000000d0: 75b5 ef3e 1f42 cf3e b9d3 933e c17c 823f
000000e0: 8f1b a93e 71df 01bf ef5d ee3c f5f5 5d3e
000000f0: 009a 2abe 85ec da3e 97b1 053f d861 8dbe
00000100: f9d8 cb3e 381b 113f 9416 2cbe b5c4 b13e
00000110: d728 413e 1003 cebe 79ed 97bc ae7e ba3e
00000120: 1f3a 623e 82f5 e43e eb73 b3bc f732 3dbf
00000130: babe 23be 3291 bf3e ab21 e1be 96fb c83e
00000140: a7f5 bc3e 3abf d4bd 4e54 783d bc1f 0cbf
00000150: 384d 243d 87bd 943b e169 b93e 1bd4 23be
00000160: 6c92 44be b18f b03e 10d6 b6be 00d9 0cbf
00000170: 7f5f 833e d011 303e cf9b bd3e a3b5 3dbf
00000180: 3714 a8be bf64 19be ab5f 18be b425 9d3e
00000190: d825 c0be f8b6 09be a821 83be 5846 49bf
000001a0: a2dc b8be 3610 1a3f e9f6 22bf a00a 0b3f
000001b0: 7508 a4be 2259 97bc 8459 23bf a7ae b5be
000001c0: 3f59 e33e 1f31 133e cd2d 98be 4d31 6a3e
000001d0: af79 93be cc47 3c3d ff96 a7be f1b7 efbe
000001e0: cbe1 bcbe f29e 8fbe 9792 cabe 6f9f 95bd
000001f0: 675e ef3e c65d e8be af3b 1c3f 1550 be3e
00000200: 5f54 c8be ae2c 843e 07b8 033f 8847 3d3e
00000210: 167b b2be 8965 b43e 68b6 803e bd12 853f
00000220: 86cd ea3e d7dd 2d3e d42a 49bd 09b5 5d3e
00000230: dd6d c2be a776 2abe aa52 353c f758 2bbe
00000240: 2e09 813e 6beb 60be 6257 813d 92f3 a8be
00000250: e25c 1bbe 0fae 593e 7a70 593d 9a48 9fbe
00000260: 35f1 2f3e 3b8e c43e 42a2 14bf d630 c0be
00000270: ec3a 3cbe 68f1 093e 51c3 523e fba8 5ebc
00000280: 0efe b8be 05e7 7b3e cea7 a33e 1996 e83e
00000290: 2ba0 843d a3ee 453e a2a1 fe3d 5085 103c
000002a0: 5056 d6be 4793 073f a684 c53e 9010 013f
000002b0: 38cd 653e de5c 763c d7fc d63e 10ec d33c
000002c0: 0aea a03c fa13 8c3e 683a b23e 36aa 013e
000002d0: 759b 18be 2bbb f03e 0544 93be 0137 9cbe
000002e0: 491b eabe 7ae5 8cbe fa0d 7bbe 3193 e4bd
000002f0: 3f71 9dbd 51ad 12be d591 003f c976 ad3e
00000300: f0db b33d b6b7 c7be b0e3 34bd 7fd3 acbe
00000310: e437 6c3e 5089 db3e 4faf d33d a143 ec3e
00000320: ec85 4f3e 93ac d73d 41f1 da3e 4ecd cf3c
00000330: 8b91 113f 8ec1 80bb 59d1 af3d b844 273d
00000340: 60f2 213e 56a7 9abe 8539 663e a69c f7bc
00000350: 30b3 a7bd 3940 09bc 2752 46be 5668 163f
00000360: 1d69 46bd 732d d83e b431 00be 06f0 a3bd
00000370: 1975 3d3e 6b32 163d a5ab b7be 1ada febd
00000380: b92f 5d3e a13c c8be 3666 d03e e1fd a6be
00000390: 5c68 83be 1e1d 98bd bd03 333e 065c cdbe
000003a0: 9124 083f af1c d9be a6a9 4fbe b167 02be
000003b0: 7a20 8dbb 56d9 153e e942 913e 0912 ab3e
000003c0: 94da fc3e 9bb9 cc3d 8423 d5be bbcd c1bd
000003d0: d444 bfbe f828 f1be 482b acbe c8d5 d83e
000003e0: 70d2 f2bd e0ce f83e c3a0 96be 3e44 1cbd
000003f0: d391 873e 73c2 0ebe 3121 a4bd 5f71 efbd

bias f4 [20]
-0.020355085 -0.033956338 0.011438668 0.058007285 -0.0099400105 -0.07127993 0.10877007 0.014316899
-0.00043343546 -0.022946153 0.0028343864 0.02996601 0.020129742 0.026550982 0.03916705 -0.03827667
-0.15298606 -0.033337045 -0.0059477556 -0.3560431
00000000: b5bf a6bc cd15 0bbd 4069 3b3c 0c99 6d3d
00000010: 6ddb 22bc 36fb 91bd d8c2 de3d 6d91 6a3c
00000020: b93e e3b9 92f9 bbbc 1dc1 393b 477b f53c
00000030: 21e7 a43c 7281 d93c a16d 203d ffc7 1cbd
00000040: 61a8 1cbe 6d8c 08bd 64e5 c2bb 484b b6be

weight f4 [1, 20]
0.33398277 0.14396814 0.61362046 -0.13928548 -0.58250743 -0.35158443 0.25394586 -0.26623574
-0.144072 -0.13571587 0.057045083 0.45321566 -0.21498393 -0.48251516 -0.33337122 0.36725056
0.44703788 0.3891672 0.059187435 0.1098529
00000000: caff aa3e 626c 133e 3b16 1d3f daa0 0ebe
00000010: 351f 15bf e002 b4be 3105 823e 0d50 88be
00000020: 9c87 13be 1af9 0abe 1ba8 693d e20b e83e
00000030: bf24 5cbe 3a0c f7be a2af aabe 4408 bc3e
00000040: 26e2 e43e ec40 c73e 866e 723d 8ffa e03d

model.0.weight f4 [20, 2]
0.81228787 -1.4572297 -0.3795867 -1.5676559 -0.5248708 -0.624217 -0.8655155 -1.0194393
0.5316297 -0.4263198 0.9950076 -0.38429236 1.5843643 -1.6462852 1.9392439 -0.1564067
-1.6166734 -1.0508567 -0.6411064 -0.045548987 1.0307404 1.2166001 -1.3569344 -1.3476954
1.328803 1.7491597 -1.1598729 -1.5185446 -1.113323 1.1324296 1.3020216 -1.285483
-0.4426434 0.28057733 0.44516274 -0.8342989 -1.0325031 0.11398035 -0.6129585 -1.0148553
00000000: 19f2 4f3f 8186 babf 3059 c2be f3a8 c8bf
00000010: ef5d 06bf afcc 1fbf 6c92 5dbf fd7c 82bf
00000020: e218 083f 9746 dabe d1b8 7e3f f8c1 c4be
00000030: 73cc ca3f 79b9 d2bf 2539 f83f 1429 20be
00000040: 27ef cebf 7982 86bf 8d1f 24bf 9391 3abd
00000050: 4def 833f 8db9 9b3f 07b0 adbf 4881 acbf
00000060: 3716 aa3f 77e4 df3f b776 94bf ab5f c2bf
00000070: 5e81 8ebf 74f3 903f a5a8 a63f b58a a4bf
00000080: 28a2 e2be d5a7 8f3e 5fec e33e 9d94 55bf
00000090: 1029 84bf 886e e93d d9ea 1cbf c7e6 81bf

model.0.bias f4 [20]
-0.10651658 -0.14095202 0.06913151 -0.11366504 -0.07045125 -0.087589115 -0.36327153 0.6065522
0.11563984 -0.21392545 -0.18900928 -0.05903127 0.2063681 -0.08148923 0.20770127 0.254687
0.25215358 -0.01649049 0.021586258 -0.08326496
00000000: 5d25 dabd ba55 10be d294 8d3d 37c9 e8bd
00000010: bf48 90bd ec61 b3bd bafe b9be 0147 1b3f
00000020: 95d4 ec3d 460f 5bbe a68b 41be c6ca 71bd
00000030: 2952 533e d3e3 a6bd a4af 543e 5666 823e
00000040: 461a 813e 1017 87bc aad5 b03c d286 aabd

model.2.weight f4 [20, 20]
-0.2837305 0.23890686 0.29116493 0.114106655 -0.15535298 0.05706876 0.35986525 -0.30100983
-0.037571732 -0.57877415 -0.24684067 0.47352937 0.26131967 -0.2692425 0.33541074 -0.41498172
-0.13637015 0.060177546 -0.02166719 0.38503513 -0.4658354 0.09809297 0.35370475 0.30690172
0.55755156 -0.25456813 0.016340952 0.26151627 -0.2661994 0.005373338 0.26676813 -0.17986943
-0.3081036 -0.48792526 -0.2946935 0.4660177 -0.5308877 0.18623985 -0.28407735 -0.43420345
-0.39927825 -0.402802 0.32377878 0.070379086 -0.37593877 -0.490974 0.012681694 0.077350765
0.30275977 0.33677 -0.44621766 0.20990576 0.62376726 0.2471679 0.5007572 0.44753116
0.41052437 0.10721964 0.6063353 0.25568768 0.16638164 0.06756046 0.059720553 -0.5121537
-0.60226196 -0.45788756 0.096022904 -0.29525945 0.069485195 -0.3978131 -0.48416027 -0.35841328
0.22262183 0.018195668 0.26986194 -0.3486114 0.14590748 -0.1054324 0.35853356 -0.5227698
-0.22642112 0.4418212 -0.077057 -0.41877308 -0.33343238 0.112760335 -0.017269326 -0.44055256
0.5834264 -0.43546155 0.12850913 -0.38193536 -0.5196995 -0.5133991 0.4458517 0.055139314
-0.3457086 0.0022159684 -0.4764397 -0.5543572 -0.14248767 0.010159824 0.02602927 0.40355662
0.4298855 -0.09097628 -0.25723225 -0.359311 0.36240733 -0.41415936 -0.40708703 0.22624181
0.42621782 0.10350492 0.009743977 0.0993735 -0.91206694 0.4083033 -0.444519 -0.06586976
-0.15187508 0.361901 0.64507866 -0.41245344 -0.19689946 -0.043427207 -0.14551567 0.26917303
-0.55303377 0.21107237 0.15513694 -0.17727144 0.4561665 -0.025283415 0.50431865 -0.2962514
0.14093962 -0.051817104 0.55712295 0.39978802 0.040813297 0.13334027 -0.37794536 -0.09437706
-0.36193776 -0.3942965 0.60284615 -0.7193429 -0.4573286 0.2938233 -0.28145733 0.631246
0.0012039361 0.10881244 0.026754856 0.35768607 -0.60767853 0.07873354 0.37794355 0.3661063
-0.23513293 0.008226687 0.016940126 -0.32773367 0.2732462 0.005336571 0.12143511 0.24680395
0.29504174 -0.58192104 0.33775914 0.4247661 -0.22978918 -0.4249506 -0.5836942 -0.10422243
0.26411906 0.17918594 0.32979736 0.2519561 0.37323457 0.48106006 -0.1923186 -0.009695025
0.2840611 0.16510296 -0.4060709 -0.1871307 -0.2106424 -0.18667713 -0.35783848 -0.044143908
0.32092023 0.23963302 -0.49470007 -0.4630647 0.0002756199 -0.44124362 -0.4765264 -0.09803158
-0.41419044 -0.4456168 0.019419497 0.50127673 -0.3283479 -0.27238125 0.43384174 0.16996844
-0.10284082 0.31073162 0.14581405 -0.3228606 0.47112122 -0.5164372 0.34163874 -0.29165408
1.0448848 -0.4831727 -0.44571543 0.044821173 0.35270616 -0.51446015 -0.24987397 0.048063096
-0.35894978 0.3441525 0.28766316 -0.19417031 0.048763484 0.48652014 -0.019487701 -0.4709321
0.075964294 -0.351232 0.32526696 0.46938288 0.23068179 0.47603637 -0.12286666 0.27058476
0.3327161 -0.4335084 0.50337285 0.0018228379 0.27093923 -0.21491313 -0.32922748 -0.06953961
-0.07175374 0.3786715 0.27631235 0.4330676 0.44051078 0.0006776532 -0.49768752 -0.11008888
00000000: 2045 91be 00a4 743e 9213 953e c0b0 e93d
00000010: da14 1fbe efc0 693d 4240 b83e f61d 9abe
00000020: d1e4 19bd 8b2a 14bf cdc3 7cbe 7172 f23e
00000030: b1cb 853e 27da 89be f5ba ab3e 7c78 d4be
00000040: 9ea4 0bbe bb7c 763d 647f b1bc 5323 c53e
00000050: fa81 eebe f8e4 c83d ca18 b53e 3922 9d3e
00000060: b3bb 0e3f c156 82be 76dd 853c 76e5 853e
00000070: 4a4b 88be d312 b03b d595 883e b12f 38be
00000080: c1bf 9dbe 57d1 f9be 11e2 96be df99 ee3e
00000090: 42e8 07bf a9b5 3e3e 9672 91be ea4f debe
000000a0: 336e ccbe 103c cebe 55c6 a53e e922 903d
000000b0: 0c7b c0be f260 fbbe e1c6 4f3c 146a 9e3d
000000c0: 5403 9b3e 1e6d ac3e a476 e4be 89f1 563e
000000d0: 36af 1f3f 9519 7d3e a031 003f ce22 e53e
000000e0: 4030 d23e f895 db3d ca38 1b3f 7fe9 823e
000000f0: f35f 2a3e 235d 8a3d 8a9d 743d 811c 03bf
00000100: d72d 1abf 3d70 eabe a8a7 c43d 3f2c 97be
00000110: 414e 8e3d 29ae cbbe dbe3 f7be f281 b7be
00000120: faf6 633e 150f 953c 582b 8a3e 327d b2be
00000130: c568 153e f1ec d7bd b691 b73e 3ed4 05bf
00000140: f0da 67be 6336 e23e 0fd0 9dbd 6d69 d6be
00000150: a6b7 aabe e4ee e63d 6778 8dbc 1b90 e1be
00000160: 6f5b 153f d1f4 debe e697 033e 088d c3be
00000170: 070b 05bf 206e 03bf ad46 e43e c3d9 613d
00000180: b800 b1be c839 113b e8ef f3be 5aea 0dbf
00000190: 4ae8 11be 6475 263c 563b d53c f99e ce3e
000001a0: f419 dc3e c651 babd f2b3 83be 9df7 b7be
000001b0: 748d b93e b20c d4be b66d d0be efab 673e
000001c0: 3939 da3e 63fa d33d 34a5 1f3c 5584 cb3d
000001d0: 387d 69bf 210d d13e ff97 e3be bae6 86bd
000001e0: 2485 1bbe 164b b93e e023 253f 192d d3be
000001f0: 03a0 49be bae0 31bd 0f02 15be 0cd1 893e
00000200: 9f93 0dbf 5b23 583e 38dc 1e3e a586 35be
00000210: a88e e93e 2a1f cfbc 071b 013f 43ae 97be
00000220: 7a52 103e 2c3e 54bd 9c9f 0e3f 04b1 cc3e
00000230: d82b 273d 5a8a 083e 0e82 c1be c348 c1bd
00000240: e84f b9be 3be1 c9be 2054 1a3f db26 38bf
00000250: f926 eabe 0270 963e 2d1b 90be 5699 213f
00000260: 64cd 9d3a 0ed9 de3d 002d db3c a122 b73e
00000270: d290 1bbf 0d3f a13d d181 c13e 4972 bb3e
00000280: b0c6 70be 3ac9 063c 05c6 8a3c b5cc a7be
00000290: ede6 8b3e 67de ae3b f9b2 f83d 2dba 7c3e
000002a0: b60f 973e c7f8 14bf c4ee ac3e f17a d93e
000002b0: db4d 6bbe 2093 d9be fc6c 15bf 9272 d5bd
000002c0: 9d3a 873e 857c 373e 33db a83e 6400 813e
000002d0: 9a18 bf3e 814d f63e 2bef 44be e2d7 1ebc
000002e0: 7570 913e c010 293e 86e8 cfbe 319f 3fbe
000002f0: a4b2 57be 4a28 3fbe 9b36 b7be 3ed0 34bd
00000300: a84f a43e 5c62 753e 5449 fdbe d116 edbe
00000310: 1481 9039 afea e1be 45fb f3be c8c4 c8bd
00000320: c510 d4be e327 e4be a315 9f3c ac53 003f
00000330: 371d a8be 8e75 8bbe 8120 de3e 350c 2e3e
00000340: 359e d2bd 3718 9f3e 4750 153e fc4d a5be
00000350: cd36 f13e 3a35 04bf 46eb ae3e af53 95be
00000360: c9be 853f 6a62 f7be d034 e4be 6896 373d
00000370: e795 b43e a9b3 03bf f6de 7fbe cfdd 443d
00000380: 44c8 b7be c234 b03e 9648 933e 95d4 46be
00000390: 38bc 473d 2b19 f93e aca4 9fbc 031e f1be
000003a0: 2b93 9b3d aed4 b3be 6489 a63e f452 f03e
000003b0: d937 6c3e 0abb f33e 84a1 fbbd 168a 8a3e
000003c0: c459 aa3e d0f4 ddbe 0bdd 003f 4aec ee3a
000003d0: 8cb8 8a3e 3012 5cbe 8190 a8be c86a 8ebd
000003e0: a0f3 92bd 3be1 c13e d078 8d3e 09bb dd3e
000003f0: a18a e13e 89a4 313a e6d0 febe 4776 e1bd

model.2.bias f4 [20]
0.041788734 0.02022942 0.20370702 0.053676672 0.16551636 -0.26101592 0.034470215 -0.253051
8.798753e-05 0.012552116 0.3357102 0.042827208 0.041353863 -0.17398585 0.05133036 -0.039899297
-0.25725552 -0.048989642 -0.112744056 0.04698147
00000000: aa2a 2b3d 2bb8 a53c 9398 503e 12dc 5b3d
00000010: 1f7d 293e e1a3 85be a430 0d3d e78f 81be
00000020: f285 b838 64a7 4d3c 35e2 ab3e 956b 2f3d
00000030: ab62 293d 5929 32be c93f 523d 726d 23bd
00000040: ffb6 83be 5da9 48bd 5be6 e6bd a46f 403d

model.4.weight f4 [20, 20]
0.0661945 0.380684 0.34002244 -0.12075622 0.103090696 -0.20395033 -0.20308593 0.41286284
0.42098185 0.50806457 -0.38825592 -0.40158436 -0.16393392 -0.22814593 0.4508672 -0.12277709
0.47504714 -0.037575506 -0.3926991 0.032861073 -0.007943171 0.330862 -0.3581165 -0.030132608
0.40572885 -0.2240428 0.39849672 -0.5475525 0.3174046 -0.25135997 -0.5156633 -0.33855802
-0.123325974 -0.0724918 0.28294662 -0.19981183 -0.08514258 -0.34372452 0.40867463 -0.6091372
0.15247957 0.39424136 0.100228764 0.13913384 -0.51519364 0.29212162 0.6334512 -0.3877344
-0.37926283 -0.43824267 0.029974477 0.32434076 0.46818128 0.40480134 0.2887247 1.0194322
0.33028838 -0.5073157 0.029097525 0.21675856 -0.16660309 0.42758575 0.52224106 -0.2761371
0.39813974 0.5668216 -0.16805488 0.34720388 0.18863235 -0.40236712 -0.018545853 0.36424774
0.22092484 0.44718558 -0.02190586 -0.7390589 -0.15990725 0.37415463 -0.43971 0.39254445
0.36906168 -0.10388036 0.060627274 -0.5473592 0.040112704 0.004539195 0.36213592 -0.1599888
-0.1919648 0.34484628 -0.35710192 -0.55018616 0.25658795 0.17194295 0.37032935 -0.7410528
-0.32827923 -0.14979838 -0.14880244 0.30692828 -0.37528872 -0.13448703 -0.25611615 -0.7862296
-0.3610583 0.60180986 -0.63658005 0.5431309 -0.32037702 -0.018475119 -0.63808465 -0.35484812
0.44404027 0.14374207 -0.29722443 0.2287037 -0.28803775 0.04596691 -0.32732388 -0.46820024
-0.36891016 -0.28050953 -0.39564964 -0.073058 0.4675171 -0.45384043 0.6102857 0.37170473
-0.3912687 0.25815338 0.5145268 0.18484318 -0.34859532 0.35233715 0.25139165 1.0396343
0.45859927 0.16979156 -0.04911311 0.2165109 -0.37974444 -0.16646825 0.011067072 -0.16733156
0.25202316 -0.21964805 0.06315495 -0.3299833 -0.1517215 0.21257804 0.05308578 -0.31110078
0.17181857 0.38389763 -0.58060086 -0.3753726 -0.18381852 0.13470995 0.2058232 -0.013590093
-0.36131328 0.24599846 0.31963962 0.45427015 0.06475862 0.19329314 0.12433173 0.008820847
-0.41862726 0.529591 0.38577765 0.504159 0.22441566 0.01503679 0.41989776 0.0258694
0.019642849 0.2735899 0.34810185 0.12662587 -0.14903052 0.47017798 -0.28762832 -0.30510715
-0.45723942 -0.27518827 -0.2451705 -0.11160887 -0.076876156 -0.14323927 0.5022252 0.33879688
0.08782184 -0.39007348 -0.044162452 -0.3375511 0.23068196 0.428782 0.10336172 0.46145347
0.20265931 0.10530963 0.42762187 0.025366452 0.56862706 -0.0039293235 0.08584852 0.04083702
0.15815115 -0.30205792 0.2248288 -0.030226063 -0.08188474 -0.008377128 -0.19367276 0.58752954
-0.048440088 0.42222175 -0.1251896 -0.08004765 0.185017 0.036669176 -0.35873142 -0.12443943
0.21600236 -0.39108756 0.4070298 -0.3261557 -0.25665557 -0.07427429 0.17481895 -0.4010927
0.53180796 -0.42404696 -0.2027956 -0.12734868 -0.00430685 0.14633688 0.2837136 0.33412197
0.49385512 0.09996339 -0.4162866 -0.09463068 -0.373572 -0.4710157 -0.3362677 0.42350602
-0.11856544 0.48595333 -0.29419526 -0.03815102 0.26478443 -0.13941364 -0.08014143 -0.11691546
00000000: fb90 873d 03e9 c23e 6c17 ae3e 094f f7bd
00000010: 3721 d33d 5bd8 50be c2f5 4fbe c262 d33e
00000020: ef8a d73e 8510 023f 7bc9 c6be 779c cdbe
00000030: 4bde 27be 169f 69be 11d8 e63e 8e72 fbbd
00000040: 6139 f33e c6e8 19bd db0f c9be 5599 063d
00000050: 1324 02bc be66 a93e 0c5b b7be a9d8 f6bc
00000060: b1bb cf3e 7a6b 65be c307 cc3e 672c 0cbf
00000070: db82 a23e 41b2 80be 8302 04bf 7a57 adbe
00000080: 5492 fcbd 9576 94bd 61de 903e 799b 4cbe
00000090: 3c5f aebd a9fc afbe cd3d d13e 6af0 1bbf
000000a0: 9b23 1c3e 01da c93e bd44 cd3d 1a79 0e3e
000000b0: bbe3 03bf f790 953e dc29 223f 2085 c6be
000000c0: bd2e c2be 5861 e0be 098d f53c fe0f a63e
000000d0: 75b5 ef3e 1f42 cf3e b9d3 933e c17c 823f
000000e0: 8f1b a93e 71df 01bf ef5d ee3c f5f5 5d3e
000000f0: 009a 2abe 85ec da3e 97b1 053f d861 8dbe
00000100: f9d8 cb3e 381b 113f 9416 2cbe b5c4 b13e
00000110: d728 413e 1003 cebe 79ed 97bc ae7e ba3e
00000120: 1f3a 623e 82f5 e43e eb73 b3bc f732 3dbf
00000130: babe 23be 3291 bf3e ab21 e1be 96fb c83e
00000140: a7f5 bc3e 3abf d4bd 4e54 783d bc1f 0cbf
00000150: 384d 243d 87bd 943b e169 b93e 1bd4 23be
00000160: 6c92 44be b18f b03e 10d6 b6be 00d9 0cbf
00000170: 7f5f 833e d011 303e cf9b bd3e a3b5 3dbf
00000180: 3714 a8be bf64 19be ab5f 18be b425 9d3e
00000190: d825 c0be f8b6 09be a821 83be 5846 49bf
000001a0: a2dc b8be 3610 1a3f e9f6 22bf a00a 0b3f
000001b0: 7508 a4be 2259 97bc 8459 23bf a7ae b5be
000001c0: 3f59 e33e 1f31 133e cd2d 98be 4d31 6a3e
000001d0: af79 93be cc47 3c3d ff96 a7be f1b7 efbe
000001e0: cbe1 bcbe f29e 8fbe 9792 cabe 6f9f 95bd
000001f0: 675e ef3e c65d e8be af3b 1c3f 1550 be3e
00000200: 5f54 c8be ae2c 843e 07b8 033f 8847 3d3e
00000210: 167b b2be 8965 b43e 68b6 803e bd12 853f
00000220: 86cd ea3e d7dd 2d3e d42a 49bd 09b5 5d3e
00000230: dd6d c2be a776 2abe aa52 353c f758 2bbe
00000240: 2e09 813e 6beb 60be 6257 813d 92f3 a8be
00000250: e25c 1bbe 0fae 593e 7a70 593d 9a48 9fbe
00000260: 35f1 2f3e 3b8e c43e 42a2 14bf d630 c0be
00000270: ec3a 3cbe 68f1 093e 51c3 523e fba8 5ebc
00000280: 0efe b8be 05e7 7b3e cea7 a33e 1996 e83e
00000290: 2ba0 843d a3ee 453e a2a1 fe3d 5085 103c
000002a0: 5056 d6be 4793 073f a684 c53e 9010 013f
000002b0: 38cd 653e de5c 763c d7fc d63e 10ec d33c
000002c0: 0aea a03c fa13 8c3e 683a b23e 36aa 013e
000002d0: 759b 18be 2bbb f03e 0544 93be 0137 9cbe
000002e0: 491b eabe 7ae5 8cbe fa0d 7bbe 3193 e4bd
000002f0: 3f71 9dbd 51ad 12be d591 003f c976 ad3e
00000300: f0db b33d b6b7 c7be b0e3 34bd 7fd3 acbe
00000310: e437 6c3e 5089 db3e 4faf d33d a143 ec3e
00000320: ec85 4f3e 93ac d73d 41f1 da3e 4ecd cf3c
00000330: 8b91 113f 8ec1 80bb 59d1 af3d b844 273d
00000340: 60f2 213e 56a7 9abe 8539 663e a69c f7bc
00000350: 30b3 a7bd 3940 09bc 2752 46be 5668 163f
00000360: 1d69 46bd 732d d83e b431 00be 06f0 a3bd
00000370: 1975 3d3e 6b32 163d a5ab b7be 1ada febd
00000380: b92f 5d3e a13c c8be 3666 d03e e1fd a6be
00000390: 5c68 83be 1e1d 98bd bd03 333e 065c cdbe
000003a0: 9124 083f af1c d9be a6a9 4fbe b167 02be
000003b0: 7a20 8dbb 56d9 153e e942 913e 0912 ab3e
000003c0: 94da fc3e 9bb9 cc3d 8423 d5be bbcd c1bd
000003d0: d444 bfbe f828 f1be 482b acbe c8d5 d83e
000003e0: 70d2 f2bd e0ce f83e c3a0 96be 3e44 1cbd
000003f0: d391 873e 73c2 0ebe 3121 a4bd 5f71 efbd

model.4.bias f4 [20]
-0.020355085 -0.033956338 0.011438668 0.058007285 -0.0099400105 -0.07127993 0.10877007 0.014316899
-0.00043343546 -0.022946153 0.0028343864 0.02996601 0.020129742 0.026550982 0.03916705 -0.03827667
-0.15298606 -0.033337045 -0.0059477556 -0.3560431
00000000: b5bf a6bc cd15 0bbd 4069 3b3c 0c99 6d3d
00000010: 6ddb 22bc 36fb 91bd d8c2 de3d 6d91 6a3c
00000020: b93e e3b9 92f9 bbbc 1dc1 393b 477b f53c
00000030: 21e7 a43c 7281 d93c a16d 203d ffc7 1cbd
00000040: 61a8 1cbe 6d8c 08bd 64e5 c2bb 484b b6be

model.6.weight f4 [1, 20]
0.33398277 0.14396814 0.61362046 -0.13928548 -0.58250743 -0.35158443 0.25394586 -0.26623574
-0.144072 -0.13571587 0.057045083 0.45321566 -0.21498393 -0.48251516 -0.33337122 0.36725056
0.44703788 0.3891672 0.059187435 0.1098529
00000000: caff aa3e 626c 133e 3b16 1d3f daa0 0ebe
00000010: 351f 15bf e002 b4be 3105 823e 0d50 88be
00000020: 9c87 13be 1af9 0abe 1ba8 693d e20b e83e
00000030: bf24 5cbe 3a0c f7be a2af aabe 4408 bc3e
00000040: 26e2 e43e ec40 c73e 866e 723d 8ffa e03d

d f4 [921]
-7.416634e-10 -9.285563e-09 -7.832453e-09 8.930893e-09 -8.090208e-09 2.8174307e-08 1.00225e-08 -5.0806683e-09
5.548637e-09 3.770197e-09 -5.2032894e-09 4.7144857e-09 -1.7006963e-08 1.9594879e-08 -2.37814e-09 1.8513683e-08
1.2438559e-08 2.7529195e-08 -3.202198e-09 1.8941406e-09 1.4943925e-08 -2.4021642e-08 8.316387e-09 8.767331e-09
3.6863037e-09 -7.3554856e-09 6.5475964e-10 8.372162e-09 3.9463806e-09 5.7005867e-09 -6.653925e-09 3.0138942e-09
-7.966152e-09 1.2826999e-08 -1.187837e-09 2.2090627e-09 -1.025958e-08 -1.11216405e-08 4.189553e-10 6.1126335e-09
-3.5683236e-09 -1.5861067e-09 4.1182036e-09 -1.2960125e-08 4.8122306e-09 7.532198e-09 -8.91898e-10 1.818411e-08
1.9472456e-08 -6.639043e-09 5.906811e-09 1.521576e-08 3.3739842e-09 1.610711e-08 1.6582687e-08 -7.1007613e-09
1.0132342e-08 -1.3965337e-08 -1.3465596e-08 9.944737e-09 -5.329746e-10 7.830899e-10 3.453024e-10 1.6283012e-09
-6.9187844e-10 -4.6409157e-10 7.6722184e-10 -9.40231e-10 1.2983777e-09 1.21461e-09 -2.1143212e-09 2.9071103e-09
-1.610748e-09 1.8523161e-09 6.130602e-10 -4.0682773e-09 2.5705335e-10 -7.923216e-10 5.5123673e-11 1.1156549e-09
4.7643853e-09 1.7244219e-09 -5.23495e-09 6.473531e-11 8.144295e-09 1.3878091e-08 1.45824295e-08 -5.458486e-09
-1.1373364e-08 -8.924297e-10 8.521736e-09 1.0943045e-09 -5.8400462e-09 1.1217052e-09 -9.499398e-09 -2.3334912e-09
-1.0232342e-08 4.95819e-09 -1.2690947e-08 -1.3698573e-10 -7.346483e-09 -1.2935265e-08 -5.0685287e-09 -8.987255e-09
2.177736e-09 5.605023e-09 -3.412334e-09 -4.5491655e-09 -1.4604747e-08 -4.799496e-10 2.0483055e-08 -1.0770477e-08
3.983949e-09 -1.0985781e-08 -2.3331737e-10 1.8516005e-09 -3.68236e-09 -1.1867324e-09 -5.6257115e-09 -9.038499e-09
-7.791016e-09 -6.8117205e-09 -1.0096709e-09 -3.1813624e-10 -2.8033247e-09 -4.336018e-09 -1.1133221e-08 -2.6590958e-09
2.0103883e-09 3.5617325e-09 2.3268067e-09 1.5496765e-09 -2.698039e-09 7.941561e-10 6.678377e-09 -8.9350065e-09
2.3483493e-10 -5.3671254e-09 4.5873207e-09 -2.1513828e-09 -3.5645176e-10 -2.887228e-09 7.2255485e-10 1.0259833e-09
-6.158779e-10 -2.4200955e-09 -1.0330565e-09 -6.5563754e-09 5.5941443e-09 1.1687668e-09 -3.3967806e-10 4.7896345e-09
-4.0683106e-09 2.0728557e-09 2.16849e-09 -4.3799e-09 5.693746e-11 -1.2776374e-09 3.3567125e-09 -1.0710637e-09
9.155997e-09 1.0419216e-08 3.751365e-09 1.5461004e-09 2.4545563e-09 7.19164e-10 5.569838e-09 1.1847386e-09
-1.9725508e-09 1.4950527e-09 -1.1217329e-09 -3.5367744e-09 3.510176e-09 -1.3413282e-09 -5.7538507e-09 5.439057e-09
-2.0838413e-09 6.4079058e-09 4.0347464e-10 3.9610084e-09 -7.3461983e-09 -6.7405517e-09 5.483488e-09 4.044876e-09
-4.6041357e-09 -5.3003544e-09 -4.550672e-09 9.55483e-10 6.063848e-09 5.967722e-09 -6.3065353e-09 5.667229e-09
-4.6023114e-09 5.0153233e-09 4.3012953e-09 1.9081399e-09 3.6429002e-09 -6.058079e-09 7.516815e-09 2.4893385e-09
-5.824526e-09 -2.0822593e-09 1.227855e-09 -3.5599176e-11 -4.9973314e-09 -7.1927992e-09 -6.2392553e-09 -1.2554746e-08
1.0769357e-08 3.8714436e-09 -2.1822644e-09 3.0725416e-09 4.5093485e-09 -2.1289823e-09 6.7019847e-09 -7.615259e-09
4.7912327e-09 -4.5477235e-09 7.700568e-09 -1.0283668e-09 -6.1847207e-09 -2.4823248e-09 -4.1283164e-09 -3.2060252e-09
-2.5040848e-11 3.3538412e-09 -8.421258e-09 8.0461854e-10 -1.7466044e-09 -3.6933652e-09 2.9827543e-09 -3.931499e-09
3.477599e-09 -4.3403197e-09 3.5776433e-09 5.348322e-10 9.125016e-10 -2.6915747e-09 -3.966776e-09 -3.3302643e-09
-1.5377394e-08 3.5516055e-11 -4.76761e-09 -3.8250287e-09 -2.5722984e-09 -1.915015e-09 -8.368023e-09 -9.17791e-09
-1.0321837e-08 -7.066564e-09 4.8316187e-09 -4.68215e-09 6.7734782e-09 -6.1793632e-09 1.0998182e-08 -1.4225153e-08
00000000: ecdd 4bb0 5786 1fb2 7e8f 06b2 7c6e 1932
00000010: 1cfd 0ab2 f503 f232 6c2f 2c32 0892 aeb1
00000020: 54a6 be31 018b 8131 9ec8 b2b1 0efd a131
00000030: b516 92b2 9851 a832 ae6c 23b1 0508 9f32
00000040: 5cb1 5532 5779 ec32 aa0d 5cb1 132a 0231
00000050: 0a5e 8032 2658 ceb2 dbdf 0e32 219f 1632
00000060: 2452 7d31 89bb fcb1 9dfa 3330 28d5 0f32
00000070: bb98 8731 e4de c331 8ba0 e4b1 fd1c 4f31
00000080: 82db 08b2 bd5d 5c32 4d41 a3b0 3ece 1731
00000090: 1c42 30b2 7e11 3fb2 b752 e62f 4b07 d231
000000a0: 9d36 75b1 2bfe d9b0 1a80 8d31 3ca7 5eb2
000000b0: d458 a531 f566 0132 be29 75b0 4833 9c32
000000c0: 6244 a732 a41d e4b1 dcf4 ca31 cfb3 8232
000000d0: c2db 6731 e95b 8a32 b771 8e32 f5fa f3b1
000000e0: 8312 2e32 34ec 6fb2 5156 67b2 6ad9 2a32
000000f0: c180 12b0 0e41 5730 fed4 bd2f c1ca df30
00000100: 9e2e 3eb0 1523 ffaf 70e4 5230 7039 81b0
00000110: 9b72 b230 4aef a630 884b 11b1 6dc6 4731
00000120: 2861 ddb0 9494 fe30 4784 2830 f2c8 8bb1
00000130: 0b51 8d2f adca 59b0 bd6f 722e 9e55 9930
00000140: fab3 a331 b400 ed30 1bdf b3b1 bd5a 8e2e
00000150: fdea 0b32 7d6c 6e32 3486 7a32 5a8d bbb1
00000160: 9564 43b2 284f 75b0 fe66 1232 6b66 9630
00000170: 97a9 c8b1 7e2a 9a30 cb32 23b2 365b 20b1
00000180: 51ca 2fb2 b35c aa31 6007 5ab2 0e9e 16af
00000190: 596c fcb1 e639 5eb2 4027 aeb1 5e66 1ab2
000001a0: 23a7 1531 4e96 c031 6a7e 6ab1 e24e 9cb1
000001b0: 5be8 7ab2 73ed 03b0 b7f2 af32 0f09 39b2
000001c0: 30e3 8831 fabb 3cb2 8044 80af 677b fe30
000001d0: c30c 7db1 6f1a a3b0 484c c1b1 bd47 1bb2
000001e0: 40d9 05b2 870c eab1 a3c4 8ab0 b2e5 aeaf
000001f0: 9ca4 40b1 05fc 94b1 6c44 3fb2 4fbb 36b1
00000200: 2027 0a31 a9c2 7431 9ee5 1f31 65fc d430
00000210: 6768 39b1 c44b 5a30 a077 e531 9380 19b2
00000220: 141a 812f bc69 b8b1 809e 9d31 87d7 13b1
00000230: 20f6 c3af a768 46b1 479d 4630 9402 8d30
00000240: 8e4a 29b0 c54e 26b1 72fb 8db0 7d46 e1b1
00000250: 9d36 c031 53a2 a030 70bd baaf 1292 a431
00000260: 3dc9 8bb1 1072 0e31 7b04 1531 027e 96b1
00000270: e269 7a2e df98 afb0 e9ab 6631 b434 93b0
00000280: 804c 1d32 3200 3332 5be5 8031 927e d430
00000290: 03ad 2831 abae 4530 d060 bf31 49d4 a230
000002a0: 7b8d 07b1 7e7a cd30 782b 9ab0 980b 73b1
000002b0: ab37 7131 ca59 b8b0 68b3 c5b1 74e2 ba31
000002c0: 5333 0fb1 892c dc31 02d0 dd2f 6619 8831
000002d0: d869 fcb1 859a e7b1 4569 bc31 1bfb 8a31
000002e0: 6832 9eb1 691e b6b1 225c 9cb1 1252 8330
000002f0: 2c5a d031 a30c cd31 dfb0 d8b1 79b9 c231
00000300: 5c22 9eb1 4053 ac31 98ca 9331 5a20 0331
00000310: 9456 7a31 6d27 d0b1 4d23 0132 e810 2b31
00000320: 1321 c8b1 7e17 0fb1 4fc1 a830 1c91 1cae
00000330: feb4 abb1 8824 f7b1 1261 d6b1 5bb0 57b2
00000340: 2204 3932 9405 8531 cdf6 15b1 b924 5331
00000350: a6f0 9a31 744d 12b1 4847 e631 43d4 02b2
00000360: 21a0 a431 3342 9cb1 754b 0432 7156 8db0
00000370: 6181 d4b1 8595 2ab1 0ed9 8db1 fe50 5cb1
00000380: fa42 dcad 6679 6631 16ad 10b2 ff2b 5d30
00000390: 2e0d f0b0 5ece 7db1 2bf9 4c31 d515 87b1
000003a0: 92fa 6e31 db21 95b1 91da 7531 7803 1330
000003b0: 97d3 7a30 aff6 38b1 214c 88b1 a1da 64b1
000003c0: 3f17 84b2 8633 1c2e 57d0 a3b1 4f6d 83b1
000003d0: 5ac4 30b1 4d99 03b1 f4c2 0fb2 e0ac 1db2
000003e0: eb53 31b2 27ce f2b1 5e03 a631 a0e0 a0b1
000003f0: 25bc e831 4152 d4b1 84f2 3c32 e262 74b2

old_dirs f4 [921]
-0.0676896 -0.075767644 0.002639759 0.04840356 0.06595096 0.51727664 -0.029447364 0.00772041
-0.39297748 -0.8108357 -0.120549165 -0.25485054 0.27014607 0.25474888 -0.02358878 0.23878118
0.09415461 -0.20996568 -0.058941748 0.4964205 0.0664444 -0.09153075 -0.10231519 0.15030979
0.0056006694 -0.010454163 0.14287587 -0.22097743 -0.00839732 -0.05073073 -0.007972803 0.0654682
0.21007384 0.42970142 -0.11977346 -0.17766884 0.025648417 -0.034493327 -0.034171954 -0.0018958485
-0.085635506 -0.013282844 0.5352575 0.0026568617 -0.89114267 -0.2858122 0.24365903 0.20389545
-0.1606224 0.5124648 -0.08066591 0.19046171 -0.01171385 -0.18032502 -0.020783974 0.086275056
0.44381908 -0.15090832 -0.057919372 0.018904615 -0.046395913 -0.05827422 -0.032656837 -0.049147885
-0.017717948 -0.008605438 -0.041507583 0.026362361 -0.04284565 -0.019534357 0.04785874 -0.05270188
0.05893618 -0.056436308 0.035920613 -0.02540652 0.02028197 -0.03370478 -0.0061727786 -0.04894473
-0.14488068 -0.17231761 -0.0971346 -0.14628154 -0.054820318 -0.029218147 -0.13589348 0.08366202
-0.13034602 -0.05906837 0.1426124 -0.1577103 0.17463046 -0.16747081 0.1157551 -0.0840511
0.062206168 -0.10302814 -0.01731044 -0.14507286 0.09591378 0.12212904 0.076607175 0.110234
0.02784006 0.0013877631 0.08865776 -0.086601585 0.10697587 0.05613087 -0.10934918 0.11830735
-0.12512225 0.12201689 -0.07066721 0.03666627 -0.036666825 0.06476664 0.033201687 0.107488334
-0.04678722 -0.10849979 -0.07847008 -0.10620145 0.0052727633 0.04553962 -0.016211336 0.10005078
-0.111153364 -0.07013397 0.10820552 -0.114242606 0.11741562 -0.11546026 0.0087400405 0.031280667
0.008463531 -0.029517801 -0.06848998 -0.10112145 0.110655546 0.12353003 0.050396133 0.08279124
0.052012857 0.040871523 0.100977466 -0.014932458 0.0469786 0.022609364 -0.06955746 0.078911155
-0.10369645 0.09568046 -0.090853885 0.070792556 -0.0572197 0.0816565 -0.014405777 0.089413315
0.016257573 0.030016467 0.017425107 0.023059122 0.0041017234 -0.0024427373 0.005609112 -0.0053917724
0.021664618 0.0072296546 -0.026265323 0.024929412 -0.02813253 0.027849143 -0.0067459056 0.008277057
-0.0031175902 0.013060496 0.0068655694 0.023802359 -0.05884328 -0.15856947 -0.1139656 -0.15028246
0.011088361 0.06956989 -0.0016094961 0.12482431 -0.15574309 -0.094544776 0.1581246 -0.16072915
0.16602884 -0.16484073 -0.0012967059 0.047343206 0.0050769118 -0.03967446 -0.097862974 -0.14506185
-0.041884437 -0.029371375 0.0043780245 -0.0015579086 -0.029735819 -0.03630367 -0.0434076 -0.035571434
0.026892373 0.013881817 -0.010160077 0.008798725 0.0071215522 -0.003011328 0.04192785 -0.041622166
0.029565705 -0.032944616 0.03283541 -0.009462 -0.05182631 -0.049071595 -0.018724406 -0.03286094
-0.027403396 -0.026978193 -0.053943474 0.00063414697 -0.01741127 -0.00399393 0.027969055 -0.032738175
0.043454967 -0.03978709 0.048013076 -0.043538176 0.027498733 -0.038704045 0.01467524 -0.035529304
0.3722469 0.50396067 0.2628869 0.39952937 0.1347036 0.04317835 0.30638412 -0.20671861
0.30444613 0.1788403 -0.36235183 0.4027075 -0.47457185 0.44849512 -0.2647937 0.138563
00000000: d8a0 8abd 112c 9bbd cfff 2c3b d042 463d
00000010: 4c11 873d 3e6c 043f 993b f1bc 7efb fc3b
00000020: 5834 c9be ee92 4fbf 7be2 f6bd c57b 82be
00000030: 9650 8a3e 726e 823e 423d c1bc 0e83 743e
00000040: 22d4 c03d 3e01 57be e76c 71bd d42a fe3e
00000050: 0014 883d 7974 bbbd a08a d1bd cfea 193e
00000060: d285 b73b f047 2bbc 0d4e 123e e847 62be
00000070: ea94 09bc 07cb 4fbd 5ca0 02bc 3114 863d
00000080: 991d 573e d301 dc3e ca4b f5bd d2ee 35be
00000090: a11c d23c e048 0dbd e4f7 0bbd 1f7e f8ba
000000a0: ab61 afbd 49a0 59bc a306 093f be1e 2e3b
000000b0: ed21 64bf fa55 92be c181 793e f8c9 503e
000000c0: 337a 24be e530 033f 2b34 a5bd 6508 433e
000000d0: 73eb 3fbc 1fa7 38be 2743 aabc fab0 b03d
000000e0: 413c e33e b687 1abe dd3c 6dbd dadd 9a3c
000000f0: a409 3ebd f3b0 6ebd 2dc3 05bd 4b4f 49bd
00000100: 3b25 91bc d3fd 0cbc db03 2abd e1f5 d73c
00000110: ec7e 2fbd 8406 a0bc 8707 443d eddd 57bd
00000120: 1067 713d c229 67bd 7e21 133d 5621 d0bc
00000130: 6026 a63c 060e 0abd 0545 cabb 457a 48bd
00000140: 9a5b 14be 0774 30be 81ee c6bd d4ca 15be
00000150: 458b 60bd e55a efbc a927 0bbe fe56 ab3d
00000160: 6d79 05be adf1 71bd fc08 123e cf7e 21be
00000170: 54d2 323e 787d 2bbe 0311 ed3d fc22 acbd
00000180: e5cb 7e3d 6b00 d3bd a0ce 8dbc fb8d 14be
00000190: 726e c43d ca1e fa3d 39e4 9c3d 5dc2 e13d
000001a0: d610 e43c 9ae5 b53a 3392 b53d 2c5c b1bd
000001b0: 2a16 db3d 7ce9 653d 76f2 dfbd 204b f23d
000001c0: 0c20 00be fee3 f93d f8b9 90bd 5f2f 163d
000001d0: f42f 16bd 5fa4 843d 7efe 073d d822 dc3d
000001e0: f5a3 3fbd 2335 debd ecb4 a0bd 2580 d9bd
000001f0: 25c7 ac3b c187 3a3d a3cd 84bc 6ce7 cc3d
00000200: 60a4 e3bd 66a2 8fbd db9a dd3d 07f8 e9bd
00000210: 9a77 f03d 6e76 ecbd 6332 0f3c 2820 003d
00000220: 9faa 0a3c 51cf f1bc 7a44 8cbd c318 cfbd
00000230: 609f e23d 50fd fc3d 2d6c 4e3d 748e a93d
00000240: 6f0b 553d e668 273d 46cd ce3d 45a7 74bc
00000250: a26c 403d 4637 b93c 2474 8ebd 2c9c a13d
00000260: ce5e d4bd 1ef4 c33d 9a11 babd b0fb 903d
00000270: 345f 6abd 863b a73d 3506 6cbc 541e b73d
00000280: 9a2e 853c 18e5 f53c 19bf 8e3c 7ce6 bc3c
00000290: c067 863b 5516 20bb a4cc b73b 77ad b0bb
000002a0: ff79 b13c bde6 ec3b 602a d7bc c438 cc3c
000002b0: 3176 e6bc e323 e43c c20c ddbb 7e9c 073c
000002c0: 7c50 4cbb b1fb 553c 92f8 e03b 2afd c23c
000002d0: a705 71bd 0960 22be cc66 e9bd a5e3 19be
000002e0: f5ab 353c a97a 8e3d baf5 d2ba e3a3 ff3d
000002f0: 1e7b 1fbe b1a0 c1bd 6aeb 213e 2f96 24be
00000300: 7703 2a3e 02cc 28be 3bf6 a9ba f3ea 413d
00000310: 395c a63b b081 22bd 626c c8bd 188b 14be
00000320: 048f 2bbd 3d9c f0bc 8875 8f3b bd32 ccba
00000330: 8898 f3bc 28b3 14bd 2bcc 31bd 5ab3 11bd
00000340: 654d dc3c 9070 633c 7476 26bc 8728 103c
00000350: e95b e93b b359 45bb 8abc 2b3d 017c 2abd
00000360: c733 f23c eff0 06bd 6c7e 063d 8106 1bbc
00000370: d347 54bd 4cff 48bd ed63 99bc 3199 06bd
00000380: 167d e0bc 5f01 ddbc d5f3 5cbd e23c 263a
00000390: 14a2 8ebc 83df 82bb 5c1f e53c 7718 06bd
000003a0: d6fd 313d caf7 22bd 5ca9 443d 1655 32bd
000003b0: 0645 e13c 2288 1ebd 6b70 703c 2d87 11bd
000003c0: 2597 be3e 9103 013f 1d99 863e 1d8f cc3e
000003d0: beef 093e c8db 303d 61de 9c3e 0bae 53be
000003e0: 5de0 9b3e e921 373e 2e86 b9be ad2f ce3e
000003f0: 15fb f2be 27a1 e53e 0a93 87be 76e3 0d3e

old_dirs f4 [921]
0.06746577 0.07550576 -0.002671092 -0.048228376 -0.065885834 -0.5153773 0.029335782 -0.007688368
0.3918239 0.80792403 0.1201692 0.25392735 -0.26924825 -0.25386167 0.023480196 -0.23789434
-0.09377759 0.209189 0.058562562 -0.49457803 -0.06616368 0.09118556 0.101909846 -0.14973563
-0.0055869254 0.010417261 -0.14230044 0.2201604 0.008378433 0.050544593 0.007952277 -0.06521341
-0.20948112 -0.4281591 0.1194472 0.1770482 -0.025569115 0.034350775 0.03404001 0.0018956718
0.085340895 0.013234526 -0.53329813 -0.0026389905 0.88796407 0.28478143 -0.24284345 -0.20311627
0.16002338 -0.51053333 0.08036028 -0.1897354 0.011678473 0.17963846 0.020711029 -0.0859396
-0.4422432 0.15039045 0.05768854 -0.018827453 0.04623102 0.05807317 0.032545734 0.04898094
0.017653957 0.008570127 0.04135787 -0.02627821 0.04270244 0.01947035 -0.0476964 0.05252341
-0.058735456 0.056244247 -0.035790693 0.025310658 -0.020209769 0.033584956 0.0061572217 0.048777554
0.14434406 0.17168953 0.09678199 0.1457516 0.054616995 0.029102411 0.13538489 -0.08336511
0.12987752 0.058856163 -0.14209674 0.15713996 -0.17399788 0.16686438 -0.11532177 0.08373173
-0.061975308 0.10264687 0.017256603 0.14454612 -0.09557001 -0.12169784 -0.076336704 -0.10984656
-0.02774053 -0.0013779885 -0.08833716 0.08630169 -0.10660109 -0.055935085 0.10896417 -0.11789182
0.12468269 -0.12158793 0.07041126 -0.036527775 0.036536343 -0.06453444 -0.03308961 -0.10710982
0.046610653 0.10811841 0.07819667 0.10583266 -0.0052596764 -0.045389947 0.01613689 -0.099708535
0.1107705 0.06989275 -0.107830234 0.11384739 -0.117008545 0.11505971 -0.008695175 -0.031185977
-0.00842895 0.02940628 0.06825899 0.10076877 -0.1102358 -0.123084895 -0.05022415 -0.08250578
-0.051811017 -0.04070039 -0.10058572 0.014905772 -0.046833552 -0.022540761 0.06932392 -0.0786453
0.10333748 -0.0953509 0.09050118 -0.0705091 0.056999885 -0.08134752 0.01432993 -0.08909944
-0.01619499 -0.029914672 -0.017368343 -0.02298509 -0.0040835445 0.0024407997 -0.005581404 0.0053821807
-0.021598015 -0.0072092908 0.026180733 -0.024851028 0.028042782 -0.027759861 0.006715395 -0.008240123
0.0031036779 -0.013011297 -0.0068485374 -0.023724165 0.058611844 0.15803136 0.11358899 0.14978838
-0.01106955 -0.069364585 0.001562447 -0.12443692 0.15524289 0.094243154 -0.15760593 0.16020626
-0.16548418 0.16429932 0.0013281999 -0.047224656 -0.005044812 0.039518066 0.09756097 0.14457943
0.04172882 0.029266486 -0.004358978 0.0015571323 0.029625453 0.03616784 0.04324547 0.035436835
-0.026788076 -0.013829182 0.010117111 -0.008760108 -0.00710239 0.0030070075 -0.041771468 0.04146718
-0.029455556 0.03282294 -0.032711856 0.009431338 0.051647052 0.04889756 0.018654507 0.032742146
0.027311718 0.026890738 0.053759534 -0.0006248834 0.017344182 0.003974728 -0.02786629 0.03261938
-0.04330005 0.03964458 -0.04784979 0.043392714 -0.027405463 0.03857063 -0.014630914 0.035401657
-0.37085542 -0.5021694 -0.26198012 -0.3981459 -0.13417837 -0.042943507 -0.30519938 0.20607114
-0.30343652 -0.17824835 0.36111197 -0.40132695 0.47292307 -0.44694152 0.2637664 -0.13796997
00000000: 7e2b 8a3d c4a2 9a3d 7d0d 2fbb 1e8b 45bd
00000010: 27ef 86bd c4ef 03bf 9851 f03c b5ee fbbb
00000020: 249d c83e 1cd4 4e3f 451b f63d c402 823e
00000030: e8da 89be 28fa 81be 8a59 c03c 939a 73be
00000040: 770e c0bd a435 563e 4cdf 6f3d 5539 fdbe
00000050: d380 87bd 7fbf ba3d 1cb6 d03d 4c54 19be
00000060: 8712 b7bb 29ad 2a3c 35b7 11be ba71 613e
00000070: b245 093c d907 4f3d 444a 023c 9c8e 85bd
00000080: 3882 56be ab37 dbbe bca0 f43d 204c 353e
00000090: 5276 d1bc 66b3 0c3d 8a6d 0b3d 3178 f83a
000000a0: 35c7 ae3d a0d5 583c 3a86 08bf eaf2 2cbb
000000b0: 9d51 633f dfce 913e f4ab 78be b6fd 4fbe
000000c0: 2bdd 233e 50b2 02bf ee93 a43d ff49 42be
000000d0: 1157 3f3c 25f3 373e 2daa a93c 1a01 b0bd
000000e0: b36d e2be f4ff 193e d24a 6c3d 083c 9abc
000000f0: bd5c 3d3d 22de 6d3d ad4e 053d 3da0 483d
00000100: 089f 903c b869 0c3c df66 293d 6745 d7bc
00000110: c1e8 2e3d 4980 9f3c 4d5d 43bd ca22 573d
00000120: 9794 70bd 5e60 663d 4399 12bd 4c58 cf3c
00000130: f58e a5bc 6190 093d 85c2 c93b f9ca 473d
00000140: eece 133e 61cf 2f3e a335 c63d e83f 153e
00000150: 12b6 5f3d 2e68 ee3c 56a2 0a3e 54bb aabd
00000160: 9dfe 043e 2913 713d cf81 11be 4ce9 203e
00000170: 802c 32be 7fde 2a3e d22d ecbd 8b7b ab3d
00000180: d2d9 7dbd 8638 d23d b85d 8d3c e603 143e
00000190: 36ba c3bd b83c f9bd 6b56 9cbd 3cf7 e0bd
000001a0: 1c40 e3bc 9f9d b4ba 1dea b4bd f1be b03d
000001b0: ac51 dabd 301c 65bd 9b28 df3d 4471 f1bd
000001c0: a359 ff3d 1803 f9bd c733 903d 269e 15bd
000001d0: 22a7 153d a22a 84bd f988 07bd 655c dbbd
000001e0: d0ea 3e3d 2f6d dd3d 9325 a03d cbbe d83d
000001f0: 5d59 acbb cfea 39bd 8331 843c fd33 ccbd
00000200: a5db e23d ee23 8f3d 19d6 dcbd d228 e93d
00000210: 2da2 efbd 6da4 eb3d 3576 0ebc bc79 ffbc
00000220: 9419 0abc 70e5 f03c 5fcb 8b3d db5f ce3d
00000230: 4fc3 e1bd ef13 fcbd d7b7 4dbd caf8 a8bd
00000240: ca37 54bd 74b5 26bd e3ff cdbd 5737 743c
00000250: 8ad4 3fbd 67a7 b8bc b3f9 8d3d c910 a1bd
00000260: 9aa2 d33d 5547 c3bd af58 b93d 1367 90bd
00000270: b678 693d 8799 a6bd 15c8 6a3c c479 b6bd
00000280: 5bab 84bc 9d0f f5bc 0e48 8ebc 3a4b bcbc
00000290: 41cf 85bb d3f5 1f3b 36e4 b6bb 015d b03b
000002a0: 52ee b0bc ea3b ecbb fa78 d63c 6294 cbbc
000002b0: fab9 e53c a668 e3bc d10c dc3b 9501 07bc
000002c0: 1367 4b3b 562d 55bc b269 e0bb 2e59 c2bc
000002d0: f912 703d f9d2 213e 58a1 e83d 2062 193e
000002e0: 0f5d 35bc 050f 8ebd 06cb cc3a c9d8 febd
000002f0: fef7 1e3e 8e02 c13d 7363 21be 1c0d 243e
00000300: af74 29be 153e 283e fe16 ae3a a46e 41bd
00000310: f34e a5bb b2dd 213d 0cce c73d a10c 143e
00000320: d7eb 2a3d 45c0 ef3c c2d5 8ebb b118 cc3a
00000330: 14b1 f23c bb24 143d 2922 313d 3726 113d
00000340: ab72 dbbc cb93 62bc 3dc2 253c 8e86 0fbc
00000350: 2abb e8bb 3711 453b 8f18 2bbd 7dd9 293d
00000360: c74c f1bc 5971 063d defc 05bd e685 1a3c
00000370: dc8b 533d cf48 483d 56d1 983c a11c 063d
00000380: d3bc df3c f749 dc3c f532 5c3d 37cf 23ba
00000390: 6315 8e3c 6f3e 823b d947 e4bc e69b 053d
000003a0: 655b 31bd 5b62 223d 24fe 43bd 8fbc 313d
000003b0: 6c81 e0bc 3dfc 1d3d 80b6 6fbc 5401 113d
000003c0: c3e0 bdbe 2c8e 00bf 4222 86be c8d9 cbbe
000003d0: 0e66 09be 88e5 2fbd 1843 9cbe 5004 533e
000003e0: 085c 9bbe bc86 36be abe3 b83e ba7a cdbe
000003f0: f922 f23e 85d5 e4be 640c 873e 0048 0dbe
