save/FNN_hard.pth (torch, 535092 bytes, 20 tensors)

weight f4 [20, 2]
0	0x3f0878e5	0.5330947
1	0xbfc1b30f	-1.5132769
2	0xbf0a5ce3	-0.54047984
3	0xbfc5e008	-1.5458994
4	0xbe9d9d8b	-0.30784258
5	0xbf23ae9d	-0.63938314
6	0xbf8fa3a4	-1.1221814
7	0xbf6ac8d6	-0.917127
8	0x3e9a8f01	0.30187228
9	0xbf26f556	-0.652181
10	0x3f726e78	0.9469981
11	0xbefc725f	-0.49306008
12	0x3fc71753	1.5553993
13	0xbfcc1fe7	-1.5947236
14	0x3fcaf850	1.5857029
15	0x3dd5ac12	0.104332104
16	0xbfc1e10b	-1.5146803
17	0xbf889e6a	-1.0673344
18	0xbf33dd5b	-0.70259637
19	0xbca2e7af	-0.019885866
20	0x3fc16020	1.510746
21	0x3f98dd21	1.1942483
22	0xbfc38af0	-1.5276775
23	0xbfb13014	-1.3842797
24	0x3fb88843	1.4416584
25	0x3fd6fb86	1.6795509
26	0xbf810633	-1.0080017
27	0xbfb7a03e	-1.4345777
28	0xbf67931d	-0.9045885
29	0x3f8bec4f	1.0931491
30	0x3fc0fc88	1.5077066
31	0xbfa39f88	-1.278306
32	0xbe03fdaf	-0.12889741
33	0x3ea84582	0.3286553
34	0x3efae054	0.48999274
35	0xbf5f4df9	-0.8722835
36	0xbf9f9028	-1.2465868
37	0x3dfd6fac	0.12374815
38	0xbec233b7	-0.3793008
39	0xbf93d9a3	-1.1550792

bias f4 [20]
0	0xbe0481c9	-0.12940134
1	0xbd60d59e	-0.05489122
2	0x3d04885c	0.032356605
3	0xbe24b4c7	-0.16084586
4	0xbdb20b53	-0.08693566
5	0x3db4e298	0.08832282
6	0x3e2f03f6	0.17091355
7	0x3e213e3a	0.15746394
8	0x3e42c003	0.19018559
9	0x3c9a754b	0.018854758
10	0x3d51b9bb	0.051202517
11	0xbea89b90	-0.32931185
12	0x3c8ac01c	0.016937308
13	0x3b03a41e	0.0020086835
14	0x3e1a2a39	0.15055169
15	0xbde0a7fd	-0.10969541
16	0x3d711dee	0.058866434
17	0x3e05193b	0.12997906
18	0x3d8d262f	0.068920486
19	0xbe305fe3	-0.17224078

weight f4 [20, 20]
0	0xbe88ea58	-0.2674129
1	0x3e823452	0.25430542
2	0x3e9a3938	0.3012178
3	0x3def8425	0.116951264
4	0xbe075612	-0.13216427
5	0xbd848591	-0.06470788
6	0x3eac868d	0.33696404
7	0xbecd40ec	-0.40088594
8	0xbd2eab46	-0.042643808
9	0xbf0aa8f4	-0.5416405
10	0xbe800dae	-0.25010437
11	0x3ef654c7	0.48111555
12	0x3e826251	0.25465634
13	0xbe86e52b	-0.26346716
14	0x3ea6de30	0.3259139
15	0xbee4c9d6	-0.4468524
16	0xbe3f0f7f	-0.18658255
17	0x3d94d20e	0.07266627
18	0x3c79732c	0.015225213
19	0x3ecbde7e	0.39818186
20	0xbef77ba0	-0.48336506
21	0x3dc6c6b9	0.09705872
22	0x3eb39ae1	0.350791
23	0x3e9256d6	0.28581876
24	0x3f09f43f	0.53888315
25	0xbeb0440f	-0.34426925
26	0xbd76c986	-0.06025078
27	0x3e28fc18	0.16502416
28	0xbe9a8a85	-0.30183807
29	0x3e39c99f	0.18143319
30	0x3e8eaa6a	0.2786439
31	0xbe4b410c	-0.19849032
32	0xbe986c8a	-0.2977031
33	0xbefe5bbd	-0.49679366
34	0xbe823902	-0.25434119
35	0x3eb319c0	0.34980583
36	0xbf095e9f	-0.53660005
37	0x3e2e8fd3	0.17047052
38	0xbe3d06b1	-0.18459584
39	0xbeddd031	-0.433229
40	0xbec42b86	-0.38314456
41	0xbece2684	-0.4026376
42	0x3eaf3b00	0.342247
43	0x3d87d572	0.06632508
44	0xbea5fe1a	-0.32420427
45	0xbec3833b	-0.38186058
46	0x3d5784ea	0.05261699
47	0x3d6de8e2	0.058083422
48	0x3eaba2fb	0.33522782
49	0x3ebe5b4d	0.37179032
50	0xbed72e29	-0.42027405
51	0x3e6c48ea	0.2307469
52	0x3f1c21bd	0.6098898
53	0x3e8c0ad6	0.27352017
54	0x3ee1a108	0.4406817
55	0x3f04e24a	0.5190779
56	0x3e8b7773	0.2723957
57	0x3e0e8e4c	0.1392147
58	0x3f1a8725	0.60362464
59	0x3e8fe3ff	0.28103635
60	0x3e4c63ca	0.19959942
61	0x3da7ba0c	0.081897825
62	0x3d2c56e4	0.042075053
63	0xbf04b153	-0.51833075
64	0xbedf48d6	-0.43610257
65	0xbefd795b	-0.4950665
66	0x3cc07c07	0.02349664
67	0xbea1fd00	-0.31638336
68	0x3db2fe78	0.08739942
69	0xbec9407e	-0.39307016
70	0xbefbcfb1	-0.49181893
71	0xbeb2e087	-0.34936926
72	0x3e442f77	0.19158731
73	0x3d1afbe4	0.037837878
74	0x3e889af6	0.26680726
75	0xbeec8b70	-0.46200132
76	0x3d0d7e98	0.034544557
77	0xbd992520	-0.07477784
78	0x3eab835f	0.33498666
79	0xbf06a47a	-0.5259472
80	0xbeb17da9	-0.34666184
81	0x3ea4ed3c	0.32212245
82	0xbe0a6d3e	-0.13518235
83	0xbeefb39e	-0.46816725
84	0xbf235e02	-0.6381532
85	0x3da07923	0.07835605
86	0x3df5fafe	0.120107636
87	0xbec72ded	-0.38902226
88	0x3f0e4fc1	0.55590445
89	0xbead5d40	-0.33860207
90	0x3e26900d	0.16265889
91	0xbee722aa	-0.45143634
92	0xbef5e66e	-0.48027366
93	0xbf10217b	-0.5630109
94	0x3ef70ac6	0.48250407
95	0x3d8e2269	0.06940157
96	0xbd8b32de	-0.067968115
97	0xbe863706	-0.26213855
98	0xbe990a41	-0.29890636
99	0xbf222bd9	-0.63348156
100	0xbeac5edd	-0.33666125
101	0xbd54caa1	-0.051951054
102	0xbdaa535a	-0.08316679
103	0x3eb95c10	0.3620305
104	0x3ea22ea4	0.3167621
105	0xbd727632	-0.05919475
106	0xbef75889	-0.48309734
107	0xbe92535b	-0.2857922
108	0x3e02107e	0.12701604
109	0xbede19af	-0.4337897
110	0xbe9f4432	-0.31106716
111	0x3e7b2d18	0.2452892
112	0x3ef4c6a1	0.47807792
113	0x3d9aa41a	0.07550831
114	0x3dfd5f3d	0.12371681
115	0x3d5bfdaf	0.05370873
116	0xbeeb0048	-0.45898652
117	0x3e898ee0	0.26866817
118	0xbeeec348	-0.46633363
119	0xbda435c5	-0.08018068
120	0xbe284e9d	-0.16436239
121	0x3eaf5663	0.34245595
122	0x3f12e24c	0.5737655
123	0xbee0b9ee	-0.43891853
124	0xbe2a1f66	-0.1661354
125	0xbec0708b	-0.37585863
126	0xbd299bf8	-0.04140851
127	0x3d7b23ee	0.061313562
128	0xbefa7018	-0.48913646
129	0x3ee9ddeb	0.45677122
130	0x3e35d385	0.1775647
131	0xbe611ca9	-0.21983589
132	0x3edb53bb	0.4283732
133	0x3bb45cf7	0.0055042463
134	0x3f0e85fb	0.5567319
135	0xbeb705fc	-0.35746753
136	0xb9645081	-0.00021773764
137	0x3d590478	0.052982777
138	0x3f59576b	0.84899014
139	0x3eb7f9e6	0.35932845
140	0xbdc1ed72	-0.09469117
141	0x3e3ff03f	0.1874399
142	0xbef63f67	-0.48095247
143	0xbde5975d	-0.11210511
144	0xbe955254	-0.29164374
145	0xbebd0699	-0.36919096
146	0x3eae48fe	0.34040064
147	0xbf3c1c29	-0.7348047
148	0xbed8a902	-0.42316443
149	0x3d978880	0.07399082
150	0xbea185d5	-0.31547418
151	0x3f21ba20	0.6317463
152	0xbc2bed9d	-0.010493663
153	0x3dbf072c	0.0932754
154	0x3e28a8c3	0.16470627
155	0x3eda9a82	0.42696005
156	0xbf053216	-0.5202955
157	0x3d70a87f	0.05875444
158	0x3eac31f1	0.33631852
159	0x3eb52027	0.35376093
160	0xbe4be5ed	-0.19911928
161	0xbb592f2d	-0.0033139691
162	0x3c2d9ad2	0.010595994
163	0xbeb7f2cc	-0.35927427
164	0x3ea65705	0.32488266
165	0x3d127b77	0.035762277
166	0x3d303320	0.043017507
167	0x3ebfdc83	0.37472925
168	0x3e845bbe	0.25851244
169	0xbf346daa	-0.70479834
170	0x3eb908db	0.3613957
171	0x3ecd458d	0.40092126
172	0xbe4d0e32	-0.20024946
173	0xbee6a0f6	-0.45044678
174	0xbf072b20	-0.5280018
175	0xbe19c631	-0.1501701
176	0x3e81bc72	0.25339085
177	0x3e675a3b	0.22593014
178	0x3e0b620a	0.13611618
179	0x3e71bcec	0.23607224
180	0x3ec1a8ed	0.37824193
181	0x3efb4f09	0.49083737
182	0xbe3377db	-0.1752619
183	0x3a3133ac	0.0006759714
184	0x3e7e13cc	0.2481224
185	0x3e5af054	0.2138074
186	0xbea9e283	-0.33180627
187	0xbe5fd7a9	-0.21859612
188	0xbe56d3f6	-0.20979294
189	0xbe451c81	-0.19249155
190	0xbeb993e1	-0.36245635
191	0xbd3bf0b0	-0.045883834
192	0x3ea425c3	0.3206006
193	0x3e79093e	0.24319932
194	0xbf0667be	-0.5250205
195	0xbeb95ba5	-0.36202732
196	0x3c3dd3c4	0.011586133
197	0xbee85fb9	-0.4538553
198	0xbee7deb0	-0.45287085
199	0xbda91a88	-0.082570136
200	0xbee734e8	-0.45157552
201	0xbec2a50c	-0.38016546
202	0xbd09c804	-0.033638015
203	0x3f296489	0.6616903
204	0xbeeac501	-0.45853427
205	0xbea281a7	-0.31739542
206	0x3f48742b	0.7830226
207	0x3ed32260	0.41237164
208	0xbc66e5c7	-0.014092869
209	0x3f354f64	0.70824265
210	0x3b362ef4	0.0027798982
211	0xbda53a8a	-0.08067806
212	0x3e854a5c	0.26033294
213	0xbea007ad	-0.31255856
214	0x3e96231b	0.29323658
215	0xbc7acfee	-0.015308363
216	0x3f5ff0de	0.8747691
217	0xbf04b069	-0.5183168
218	0xbf4b637b	-0.7944867
219	0x3c802324	0.015641756
220	0x3ed0b62b	0.40763983
221	0xbef79738	-0.48357558
222	0xbe899ed4	-0.2687899
223	0x3d83b35b	0.06430694
224	0xbea7d566	-0.32779998
225	0x3ed45e9b	0.41478428
226	0x3ebabafe	0.3647079
227	0xbeaddbde	-0.33956808
228	0x3cfc24d8	0.030779287
229	0x3efd2927	0.4944546
230	0xbd305cc1	-0.043057207
231	0xbedeeeea	-0.43541652
232	0x3d50488d	0.05085044
233	0xbea9ef86	-0.33190554
234	0x3e82f00e	0.25573772
235	0x3f07d961	0.5306607
236	0x3e56ede4	0.20989186
237	0x3f053f86	0.52050054
238	0xbe2fa86f	-0.17154096
239	0x3e909678	0.282398
240	0x3ea401d6	0.3203265
241	0xbed6ebd5	-0.419768
242	0x3ee968f6	0.4558789
243	0xbcd01f24	-0.025405474
244	0x3e7b07a7	0.24514638
245	0xbe72fa7f	-0.23728369
246	0xbeb90a31	-0.36140588
247	0xbd1f708a	-0.038925685
248	0xbe0aa690	-0.13540101
249	0x3f20249e	0.62555873
250	0x3ea4ce32	0.32188565
251	0x3ed25bb2	0.41085583
252	0x3ee8b3f9	0.45449808
253	0xbd04f364	-0.032458678
254	0xbef9884f	-0.48736808
255	0xbe207aef	-0.15671895

bias f4 [20]
0	0xbd15925a	-0.036516525
1	0xbd129b69	-0.035792742
2	0x3d841a66	0.064503476
3	0x3d990239	0.07471127
4	0x3e4aa24a	0.19788471
5	0xbd119867	-0.035545733
6	0x3e3a8639	0.18215264
7	0xbe01241c	-0.12611431
8	0x3b6880ba	0.0035477118
9	0xbd03a70b	-0.032141726
10	0x3eea28fd	0.45734397
11	0x3cb03e32	0.021514032
12	0xbd149a26	-0.03627982
13	0xbd0ecc99	-0.03486309
14	0xbdf7c682	-0.12098409
15	0xbcbdf314	-0.023187198
16	0x3c79f680	0.015256524
17	0x3c99dfe6	0.01878352
18	0x3e33c145	0.17554195
19	0x3d22adc4	0.039716497

weight f4 [20, 20]
0	0x3c852d20	0.016256869
1	0x3ee6a828	0.45050168
2	0x3e7bdabe	0.24595162
3	0xbdd579e3	-0.10423639
4	0x3dc68e31	0.096950896
5	0xbe635e6a	-0.22203985
6	0xbe98aac3	-0.2981778
7	0x3e9a4bda	0.30135995
8	0x3f13dcba	0.57758677
9	0x3f23671a	0.63829195
10	0xbecd3127	-0.40076563
11	0xbe99146f	-0.29898402
12	0xbda7cf32	-0.08193816
13	0xbe8ddf49	-0.27709416
14	0x3f14faff	0.5819549
15	0xbeb26aa9	-0.34847
16	0x3ecb1ffb	0.39672837
17	0xbe3bb50d	-0.18330784
18	0xbeb9762a	-0.36222965
19	0x3d1b453d	0.037907828
20	0xbd1a65e2	-0.03769482
21	0x3ec282f1	0.37990525
22	0xbebb4e49	-0.36583164
23	0x3e69104d	0.22760125
24	0x3ee3d657	0.44499466
25	0xbe4ff445	-0.20308025
26	0x3ee202a8	0.44142652
27	0xbf47c658	-0.78037024
28	0x3ea88063	0.3291045
29	0xbe5d8482	-0.21632579
30	0xbefc6cee	-0.49301857
31	0xbf166e78	-0.5876231
32	0xbe3f15be	-0.18660638
33	0xbe82ecad	-0.25571194
34	0x3eabb409	0.33535793
35	0xbeb46ab2	-0.35237652
36	0xbe6a4498	-0.22877729
37	0xbf07c806	-0.53039587
38	0x3ec8e96a	0.3924058
39	0xbf1686a5	-0.587992
40	0x3e06fdda	0.13182774
41	0x3ec6c371	0.38820985
42	0x3df5ef8c	0.120085806
43	0x3def6e1f	0.11690926
44	0xbefa3375	-0.48867384
45	0x3e99bb41	0.30025676
46	0x3f1234da	0.57111895
47	0xbee146ba	-0.43999273
48	0xbea2c8ff	-0.31793973
49	0xbe9e152c	-0.30875528
50	0x3d02d4e9	0.03194133
51	0x3e25233c	0.16126722
52	0x3ef74b8f	0.48299834
53	0x3ecaa4b3	0.3957878
54	0x3eb18c74	0.3467747
55	0x3f229be6	0.6351913
56	0x3e8f6697	0.28007957
57	0xbf0002b5	-0.5000413
58	0x3d139f5b	0.036040645
59	0x3e5608f0	0.20901847
60	0xbe20662d	-0.15663977
61	0x3ee20900	0.4414749
62	0x3ee13750	0.43987513
63	0xbe968340	-0.2939701
64	0x3eb771a4	0.35828888
65	0x3f0d8418	0.55279684
66	0x3e1557d6	0.14584288
67	0x3ec335a1	0.38126853
68	0x3d31dc97	0.04342326
69	0xbecfcfa4	-0.40588105
70	0xbcddd6c8	-0.027079955
71	0x3ead1b05	0.33809677
72	0x3e89cdd0	0.26914835
73	0x3ecc5519	0.39908674
74	0x3d090083	0.033447754
75	0xbf14c167	-0.5810761
76	0xbe054b75	-0.13017066
77	0x3ee89737	0.45427868
78	0xbee38d6c	-0.44443834
79	0x3edc00f8	0.4296949
80	0x3ec352fc	0.3814925
81	0xbdb01f50	-0.085997224
82	0x3db79c48	0.08965355
83	0xbefde071	-0.49585298
84	0x3cb8302c	0.022483908
85	0xbcb36588	-0.021899
86	0x3ee15dc3	0.44016847
87	0xbddb751e	-0.10715698
88	0xbe8d9070	-0.2764926
89	0x3e6d23f4	0.23158246
90	0xbeb515c3	-0.35368165
91	0xbefb7771	-0.49114564
92	0x3e9218ac	0.28534448
93	0x3e875d63	0.26438436
94	0x3f0043d5	0.50103503
95	0xbf0cafeb	-0.5495593
96	0xbe93d4f0	-0.28873396
97	0x3bdf1b9a	0.0068087103
98	0xbe2cea15	-0.1688617
99	0x3ea7be94	0.32762587
100	0xbea70657	-0.32622024
101	0xbe43b5de	-0.19112346
102	0xbe4b981b	-0.19882242
103	0xbeea757f	-0.45792767
104	0xbeb9bf2a	-0.3627866
105	0x3f1f7b24	0.6229727
106	0xbefb0c9e	-0.49033064
107	0x3f09aa0d	0.537751
108	0xbecfcf4d	-0.40587845
109	0xbd3e1d14	-0.04641445
110	0xbf19ae83	-0.6003191
111	0xbeedd7bc	-0.46453655
112	0x3eba08a9	0.36334732
113	0x3d3486e3	0.04407395
114	0xbec864ab	-0.39139304
115	0x3e568eae	0.20952865
116	0xbea1c507	-0.31595632
117	0xbcea57cc	-0.028606318
118	0xbecc8bac	-0.3995031
119	0xbedd9e5a	-0.43284875
120	0xbedc8067	-0.43066713
121	0xbe84fe14	-0.25975096
122	0xbed3b1e5	-0.4134666
123	0xbd3361e3	-0.043794524
124	0x3f097538	0.53694487
125	0xbef5c784	-0.4800378
126	0x3f08f8cb	0.5350463
127	0x3e1e191e	0.15439269
128	0xbe982058	-0.29712176
129	0x3eb85387	0.36001226
130	0x3f11d9b3	0.5697281
131	0x3e12f887	0.14352618
132	0xbe9f67b0	-0.31133795
133	0x3ec2a543	0.3801671
134	0x3efc852c	0.49320352
135	0x3f1a2769	0.60216385
136	0x3eaafe92	0.33397347
137	0x3d04629e	0.03232061
138	0xbd6ef42b	-0.058338325
139	0x3e3ad27b	0.18244354
140	0xbeb57bd8	-0.35446048
141	0xbe4f2b9c	-0.2023148
142	0x3ded513b	0.11587759
143	0xbe4c9d68	-0.1998192
144	0x3e547e33	0.20751266
145	0xbe6f685b	-0.23379652
146	0x3de708a8	0.11280948
147	0xbe8e348f	-0.27774474
148	0xbe8f12d7	-0.2794406
149	0xbd529c05	-0.051418323
150	0x3d08125f	0.033220645
151	0xbea52612	-0.32255608
152	0x3d4b7b91	0.04967839
153	0x3eabffa9	0.3359349
154	0xbef62667	-0.48076174
155	0xbe1841e7	-0.1486889
156	0xbdb7f2b1	-0.089818366
157	0x3ea5ef53	0.32409152
158	0x3e3f1180	0.1865902
159	0xbcbbc8ef	-0.022922961
160	0xbe9f1da1	-0.31077293
161	0x3e3ea30e	0.18616888
162	0x3eba3de8	0.36375356
163	0x3eef964d	0.46794358
164	0x3cf3035e	0.029664692
165	0x3e62591e	0.22104308
166	0x3e1df6d5	0.1542619
167	0x3dda15e2	0.10648705
168	0xbf01d41a	-0.50714266
169	0x3ef86913	0.48517665
170	0x3eb2e349	0.3493903
171	0x3ee0fc97	0.4394271
172	0x3e4e14c2	0.20125106
173	0xbc8bb969	-0.017056184
174	0x3eae65d4	0.34062064
175	0x3c52c794	0.012864966
176	0x3da64fa4	0.08120659
177	0x3ec7bcd0	0.3901124
178	0x3eb422fd	0.35182944
179	0x3e1e5f7a	0.15466109
180	0xbe0bb481	-0.13643076
181	0x3efd9b41	0.49532512
182	0xbe6ded76	-0.23235115
183	0xbe92e9fb	-0.28694138
184	0xbeec475e	-0.461482
185	0xbe8f5773	-0.27996406
186	0xbe69f68b	-0.22847955
187	0xbd8a79d8	-0.06761521
188	0xbdf5155e	-0.11966966
189	0xbe68b674	-0.2272585
190	0x3efa829f	0.4892778
191	0x3eb051be	0.34437364
192	0x3de10cc2	0.109887615
193	0xbef40a6f	-0.4766421
194	0x3c84c6fc	0.016208164
195	0xbee73eb3	-0.45165023
196	0x3e822b26	0.25423545
197	0x3f095014	0.53637815
198	0x3db26351	0.08710349
199	0x3efa1db7	0.48850796
200	0x3e50b1b2	0.20380285
201	0x3de42d04	0.111413985
202	0x3edac83b	0.4273089
203	0x3c958d24	0.018255778
204	0x3f13684c	0.5758102
205	0x3c7ddf00	0.015495062
206	0x3d0ea1b0	0.034822166
207	0x3d13037e	0.035892002
208	0x3e3b8b70	0.1831491
209	0xbea03633	-0.3129135
210	0x3e5e8436	0.21730122
211	0xbd01a797	-0.031653967
212	0xbd89d211	-0.0672952
213	0xbc0982a9	-0.008392968
214	0xbe5e01ec	-0.2168042
215	0x3f069868	0.52576303
216	0xbd688a24	-0.056772366
217	0x3eb5c031	0.35498193
218	0xbdfee45f	-0.12445902
219	0xbd91d08e	-0.07119857
220	0x3e2c4516	0.16823229
221	0x3d3083f9	0.04309461
222	0xbeb82ac7	-0.35970137
223	0xbd95d423	-0.073158525
224	0x3e784a73	0.2424715
225	0xbecd63eb	-0.40115294
226	0x3eca21a0	0.3947878
227	0xbeb29ab9	-0.3488367
228	0xbe8962fa	-0.26833326
229	0xbd17956b	-0.03700773
230	0x3e313a89	0.17307486
231	0xbec0f251	-0.37684873
232	0x3f172c8b	0.5905234
233	0xbee36c8e	-0.44418758
234	0xbec730ef	-0.3890452
235	0xbe970439	-0.2949541
236	0xbcc7d417	-0.024393125
237	0x3dd54ed2	0.104154244
238	0x3e9da5f6	0.3079068
239	0x3ebd0a84	0.36922085
240	0x3f00a134	0.50245976
241	0x3d7ba5e4	0.061437503
242	0xbec75ef2	-0.38939625
243	0xbdb7f520	-0.08982301
244	0xbec0f29e	-0.37685102
245	0xbeee201b	-0.4650887
246	0xbe9bfb1e	-0.30465025
247	0x3edf4a12	0.436112
248	0xbe0e9111	-0.13922526
249	0x3f04ff55	0.51952106
250	0xbe909bcf	-0.28243873
251	0xbd5e0935	-0.054208
252	0x3e0062b0	0.12537646
253	0xbe2ff3b8	-0.17182815
254	0xbe0cc191	-0.13745715
255	0xbe152619	-0.14565314

bias f4 [20]
0	0xbd94e09f	-0.072694056
1	0x3d13c5f7	0.036077466
2	0x3c63d732	0.013906287
3	0xbd3a6fba	-0.045516707
4	0xbccef77b	-0.025264492
5	0xbc3527eb	-0.0110568805
6	0x3d667e9b	0.056273084
7	0x3d42e618	0.047582716
8	0xbd072a67	-0.032999422
9	0xbc5a6dd0	-0.013331845
10	0x3ca54578	0.020174727
11	0x3cd7ea3c	0.026356809
12	0xbaac491b	-0.0013144346
13	0x3bee31ce	0.007269121
14	0x3dc032cf	0.09384691
15	0xbe45e690	-0.19326234
16	0x3a845323	0.0010095577
17	0x3bced1e6	0.006311643
18	0x3c8780fb	0.016540995
19	0xbcc85604	-0.024455078

weight f4 [1, 20]
0	0x3eab0308	0.3340075
1	0x3e314569	0.17311634
2	0x3f176bf4	0.591491
3	0xbe2b1cbd	-0.16710182
4	0xbed8702f	-0.4227309
5	0xbe9c20f5	-0.30493894
6	0x3e728a4f	0.23685573
7	0xbe83c776	-0.25738114
8	0xbe20c858	-0.15701425
9	0xbe8dc2cf	-0.2768769
10	0x3d211ca3	0.03933395
11	0x3f06fd09	0.5272985
12	0xbe279cf3	-0.16368465
13	0xbee0f984	-0.43940365
14	0xbeac185f	-0.33612344
15	0x3eaf954b	0.3429359
16	0x3eda6b5a	0.42660028
17	0x3ebc6303	0.3679429
18	0x3df38842	0.118912235
19	0x3de17d61	0.11010242

model.0.weight f4 [20, 2]
0	0x3f0878e5	0.5330947
1	0xbfc1b30f	-1.5132769
2	0xbf0a5ce3	-0.54047984
3	0xbfc5e008	-1.5458994
4	0xbe9d9d8b	-0.30784258
5	0xbf23ae9d	-0.63938314
6	0xbf8fa3a4	-1.1221814
7	0xbf6ac8d6	-0.917127
8	0x3e9a8f01	0.30187228
9	0xbf26f556	-0.652181
10	0x3f726e78	0.9469981
11	0xbefc725f	-0.49306008
12	0x3fc71753	1.5553993
13	0xbfcc1fe7	-1.5947236
14	0x3fcaf850	1.5857029
15	0x3dd5ac12	0.104332104
16	0xbfc1e10b	-1.5146803
17	0xbf889e6a	-1.0673344
18	0xbf33dd5b	-0.70259637
19	0xbca2e7af	-0.019885866
20	0x3fc16020	1.510746
21	0x3f98dd21	1.1942483
22	0xbfc38af0	-1.5276775
23	0xbfb13014	-1.3842797
24	0x3fb88843	1.4416584
25	0x3fd6fb86	1.6795509
26	0xbf810633	-1.0080017
27	0xbfb7a03e	-1.4345777
28	0xbf67931d	-0.9045885
29	0x3f8bec4f	1.0931491
30	0x3fc0fc88	1.5077066
31	0xbfa39f88	-1.278306
32	0xbe03fdaf	-0.12889741
33	0x3ea84582	0.3286553
34	0x3efae054	0.48999274
35	0xbf5f4df9	-0.8722835
36	0xbf9f9028	-1.2465868
37	0x3dfd6fac	0.12374815
38	0xbec233b7	-0.3793008
39	0xbf93d9a3	-1.1550792

model.0.bias f4 [20]
0	0xbe0481c9	-0.12940134
1	0xbd60d59e	-0.05489122
2	0x3d04885c	0.032356605
3	0xbe24b4c7	-0.16084586
4	0xbdb20b53	-0.08693566
5	0x3db4e298	0.08832282
6	0x3e2f03f6	0.17091355
7	0x3e213e3a	0.15746394
8	0x3e42c003	0.19018559
9	0x3c9a754b	0.018854758
10	0x3d51b9bb	0.051202517
11	0xbea89b90	-0.32931185
12	0x3c8ac01c	0.016937308
13	0x3b03a41e	0.0020086835
14	0x3e1a2a39	0.15055169
15	0xbde0a7fd	-0.10969541
16	0x3d711dee	0.058866434
17	0x3e05193b	0.12997906
18	0x3d8d262f	0.068920486
19	0xbe305fe3	-0.17224078

model.2.weight f4 [20, 20]
0	0xbe88ea58	-0.2674129
1	0x3e823452	0.25430542
2	0x3e9a3938	0.3012178
3	0x3def8425	0.116951264
4	0xbe075612	-0.13216427
5	0xbd848591	-0.06470788
6	0x3eac868d	0.33696404
7	0xbecd40ec	-0.40088594
8	0xbd2eab46	-0.042643808
9	0xbf0aa8f4	-0.5416405
10	0xbe800dae	-0.25010437
11	0x3ef654c7	0.48111555
12	0x3e826251	0.25465634
13	0xbe86e52b	-0.26346716
14	0x3ea6de30	0.3259139
15	0xbee4c9d6	-0.4468524
16	0xbe3f0f7f	-0.18658255
17	0x3d94d20e	0.07266627
18	0x3c79732c	0.015225213
19	0x3ecbde7e	0.39818186
20	0xbef77ba0	-0.48336506
21	0x3dc6c6b9	0.09705872
22	0x3eb39ae1	0.350791
23	0x3e9256d6	0.28581876
24	0x3f09f43f	0.53888315
25	0xbeb0440f	-0.34426925
26	0xbd76c986	-0.06025078
27	0x3e28fc18	0.16502416
28	0xbe9a8a85	-0.30183807
29	0x3e39c99f	0.18143319
30	0x3e8eaa6a	0.2786439
31	0xbe4b410c	-0.19849032
32	0xbe986c8a	-0.2977031
33	0xbefe5bbd	-0.49679366
34	0xbe823902	-0.25434119
35	0x3eb319c0	0.34980583
36	0xbf095e9f	-0.53660005
37	0x3e2e8fd3	0.17047052
38	0xbe3d06b1	-0.18459584
39	0xbeddd031	-0.433229
40	0xbec42b86	-0.38314456
41	0xbece2684	-0.4026376
42	0x3eaf3b00	0.342247
43	0x3d87d572	0.06632508
44	0xbea5fe1a	-0.32420427
45	0xbec3833b	-0.38186058
46	0x3d5784ea	0.05261699
47	0x3d6de8e2	0.058083422
48	0x3eaba2fb	0.33522782
49	0x3ebe5b4d	0.37179032
50	0xbed72e29	-0.42027405
51	0x3e6c48ea	0.2307469
52	0x3f1c21bd	0.6098898
53	0x3e8c0ad6	0.27352017
54	0x3ee1a108	0.4406817
55	0x3f04e24a	0.5190779
56	0x3e8b7773	0.2723957
57	0x3e0e8e4c	0.1392147
58	0x3f1a8725	0.60362464
59	0x3e8fe3ff	0.28103635
60	0x3e4c63ca	0.19959942
61	0x3da7ba0c	0.081897825
62	0x3d2c56e4	0.042075053
63	0xbf04b153	-0.51833075
64	0xbedf48d6	-0.43610257
65	0xbefd795b	-0.4950665
66	0x3cc07c07	0.02349664
67	0xbea1fd00	-0.31638336
68	0x3db2fe78	0.08739942
69	0xbec9407e	-0.39307016
70	0xbefbcfb1	-0.49181893
71	0xbeb2e087	-0.34936926
72	0x3e442f77	0.19158731
73	0x3d1afbe4	0.037837878
74	0x3e889af6	0.26680726
75	0xbeec8b70	-0.46200132
76	0x3d0d7e98	0.034544557
77	0xbd992520	-0.07477784
78	0x3eab835f	0.33498666
79	0xbf06a47a	-0.5259472
80	0xbeb17da9	-0.34666184
81	0x3ea4ed3c	0.32212245
82	0xbe0a6d3e	-0.13518235
83	0xbeefb39e	-0.46816725
84	0xbf235e02	-0.6381532
85	0x3da07923	0.07835605
86	0x3df5fafe	0.120107636
87	0xbec72ded	-0.38902226
88	0x3f0e4fc1	0.55590445
89	0xbead5d40	-0.33860207
90	0x3e26900d	0.16265889
91	0xbee722aa	-0.45143634
92	0xbef5e66e	-0.48027366
93	0xbf10217b	-0.5630109
94	0x3ef70ac6	0.48250407
95	0x3d8e2269	0.06940157
96	0xbd8b32de	-0.067968115
97	0xbe863706	-0.26213855
98	0xbe990a41	-0.29890636
99	0xbf222bd9	-0.63348156
100	0xbeac5edd	-0.33666125
101	0xbd54caa1	-0.051951054
102	0xbdaa535a	-0.08316679
103	0x3eb95c10	0.3620305
104	0x3ea22ea4	0.3167621
105	0xbd727632	-0.05919475
106	0xbef75889	-0.48309734
107	0xbe92535b	-0.2857922
108	0x3e02107e	0.12701604
109	0xbede19af	-0.4337897
110	0xbe9f4432	-0.31106716
111	0x3e7b2d18	0.2452892
112	0x3ef4c6a1	0.47807792
113	0x3d9aa41a	0.07550831
114	0x3dfd5f3d	0.12371681
115	0x3d5bfdaf	0.05370873
116	0xbeeb0048	-0.45898652
117	0x3e898ee0	0.26866817
118	0xbeeec348	-0.46633363
119	0xbda435c5	-0.08018068
120	0xbe284e9d	-0.16436239
121	0x3eaf5663	0.34245595
122	0x3f12e24c	0.5737655
123	0xbee0b9ee	-0.43891853
124	0xbe2a1f66	-0.1661354
125	0xbec0708b	-0.37585863
126	0xbd299bf8	-0.04140851
127	0x3d7b23ee	0.061313562
128	0xbefa7018	-0.48913646
129	0x3ee9ddeb	0.45677122
130	0x3e35d385	0.1775647
131	0xbe611ca9	-0.21983589
132	0x3edb53bb	0.4283732
133	0x3bb45cf7	0.0055042463
134	0x3f0e85fb	0.5567319
135	0xbeb705fc	-0.35746753
136	0xb9645081	-0.00021773764
137	0x3d590478	0.052982777
138	0x3f59576b	0.84899014
139	0x3eb7f9e6	0.35932845
140	0xbdc1ed72	-0.09469117
141	0x3e3ff03f	0.1874399
142	0xbef63f67	-0.48095247
143	0xbde5975d	-0.11210511
144	0xbe955254	-0.29164374
145	0xbebd0699	-0.36919096
146	0x3eae48fe	0.34040064
147	0xbf3c1c29	-0.7348047
148	0xbed8a902	-0.42316443
149	0x3d978880	0.07399082
150	0xbea185d5	-0.31547418
151	0x3f21ba20	0.6317463
152	0xbc2bed9d	-0.010493663
153	0x3dbf072c	0.0932754
154	0x3e28a8c3	0.16470627
155	0x3eda9a82	0.42696005
156	0xbf053216	-0.5202955
157	0x3d70a87f	0.05875444
158	0x3eac31f1	0.33631852
159	0x3eb52027	0.35376093
160	0xbe4be5ed	-0.19911928
161	0xbb592f2d	-0.0033139691
162	0x3c2d9ad2	0.010595994
163	0xbeb7f2cc	-0.35927427
164	0x3ea65705	0.32488266
165	0x3d127b77	0.035762277
166	0x3d303320	0.043017507
167	0x3ebfdc83	0.37472925
168	0x3e845bbe	0.25851244
169	0xbf346daa	-0.70479834
170	0x3eb908db	0.3613957
171	0x3ecd458d	0.40092126
172	0xbe4d0e32	-0.20024946
173	0xbee6a0f6	-0.45044678
174	0xbf072b20	-0.5280018
175	0xbe19c631	-0.1501701
176	0x3e81bc72	0.25339085
177	0x3e675a3b	0.22593014
178	0x3e0b620a	0.13611618
179	0x3e71bcec	0.23607224
180	0x3ec1a8ed	0.37824193
181	0x3efb4f09	0.49083737
182	0xbe3377db	-0.1752619
183	0x3a3133ac	0.0006759714
184	0x3e7e13cc	0.2481224
185	0x3e5af054	0.2138074
186	0xbea9e283	-0.33180627
187	0xbe5fd7a9	-0.21859612
188	0xbe56d3f6	-0.20979294
189	0xbe451c81	-0.19249155
190	0xbeb993e1	-0.36245635
191	0xbd3bf0b0	-0.045883834
192	0x3ea425c3	0.3206006
193	0x3e79093e	0.24319932
194	0xbf0667be	-0.5250205
195	0xbeb95ba5	-0.36202732
196	0x3c3dd3c4	0.011586133
197	0xbee85fb9	-0.4538553
198	0xbee7deb0	-0.45287085
199	0xbda91a88	-0.082570136
200	0xbee734e8	-0.45157552
201	0xbec2a50c	-0.38016546
202	0xbd09c804	-0.033638015
203	0x3f296489	0.6616903
204	0xbeeac501	-0.45853427
205	0xbea281a7	-0.31739542
206	0x3f48742b	0.7830226
207	0x3ed32260	0.41237164
208	0xbc66e5c7	-0.014092869
209	0x3f354f64	0.70824265
210	0x3b362ef4	0.0027798982
211	0xbda53a8a	-0.08067806
212	0x3e854a5c	0.26033294
213	0xbea007ad	-0.31255856
214	0x3e96231b	0.29323658
215	0xbc7acfee	-0.015308363
216	0x3f5ff0de	0.8747691
217	0xbf04b069	-0.5183168
218	0xbf4b637b	-0.7944867
219	0x3c802324	0.015641756
220	0x3ed0b62b	0.40763983
221	0xbef79738	-0.48357558
222	0xbe899ed4	-0.2687899
223	0x3d83b35b	0.06430694
224	0xbea7d566	-0.32779998
225	0x3ed45e9b	0.41478428
226	0x3ebabafe	0.3647079
227	0xbeaddbde	-0.33956808
228	0x3cfc24d8	0.030779287
229	0x3efd2927	0.4944546
230	0xbd305cc1	-0.043057207
231	0xbedeeeea	-0.43541652
232	0x3d50488d	0.05085044
233	0xbea9ef86	-0.33190554
234	0x3e82f00e	0.25573772
235	0x3f07d961	0.5306607
236	0x3e56ede4	0.20989186
237	0x3f053f86	0.52050054
238	0xbe2fa86f	-0.17154096
239	0x3e909678	0.282398
240	0x3ea401d6	0.3203265
241	0xbed6ebd5	-0.419768
242	0x3ee968f6	0.4558789
243	0xbcd01f24	-0.025405474
244	0x3e7b07a7	0.24514638
245	0xbe72fa7f	-0.23728369
246	0xbeb90a31	-0.36140588
247	0xbd1f708a	-0.038925685
248	0xbe0aa690	-0.13540101
249	0x3f20249e	0.62555873
250	0x3ea4ce32	0.32188565
251	0x3ed25bb2	0.41085583
252	0x3ee8b3f9	0.45449808
253	0xbd04f364	-0.032458678
254	0xbef9884f	-0.48736808
255	0xbe207aef	-0.15671895

model.2.bias f4 [20]
0	0xbd15925a	-0.036516525
1	0xbd129b69	-0.035792742
2	0x3d841a66	0.064503476
3	0x3d990239	0.07471127
4	0x3e4aa24a	0.19788471
5	0xbd119867	-0.035545733
6	0x3e3a8639	0.18215264
7	0xbe01241c	-0.12611431
8	0x3b6880ba	0.0035477118
9	0xbd03a70b	-0.032141726
10	0x3eea28fd	0.45734397
11	0x3cb03e32	0.021514032
12	0xbd149a26	-0.03627982
13	0xbd0ecc99	-0.03486309
14	0xbdf7c682	-0.12098409
15	0xbcbdf314	-0.023187198
16	0x3c79f680	0.015256524
17	0x3c99dfe6	0.01878352
18	0x3e33c145	0.17554195
19	0x3d22adc4	0.039716497

model.4.weight f4 [20, 20]
0	0x3c852d20	0.016256869
1	0x3ee6a828	0.45050168
2	0x3e7bdabe	0.24595162
3	0xbdd579e3	-0.10423639
4	0x3dc68e31	0.096950896
5	0xbe635e6a	-0.22203985
6	0xbe98aac3	-0.2981778
7	0x3e9a4bda	0.30135995
8	0x3f13dcba	0.57758677
9	0x3f23671a	0.63829195
10	0xbecd3127	-0.40076563
11	0xbe99146f	-0.29898402
12	0xbda7cf32	-0.08193816
13	0xbe8ddf49	-0.27709416
14	0x3f14faff	0.5819549
15	0xbeb26aa9	-0.34847
16	0x3ecb1ffb	0.39672837
17	0xbe3bb50d	-0.18330784
18	0xbeb9762a	-0.36222965
19	0x3d1b453d	0.037907828
20	0xbd1a65e2	-0.03769482
21	0x3ec282f1	0.37990525
22	0xbebb4e49	-0.36583164
23	0x3e69104d	0.22760125
24	0x3ee3d657	0.44499466
25	0xbe4ff445	-0.20308025
26	0x3ee202a8	0.44142652
27	0xbf47c658	-0.78037024
28	0x3ea88063	0.3291045
29	0xbe5d8482	-0.21632579
30	0xbefc6cee	-0.49301857
31	0xbf166e78	-0.5876231
32	0xbe3f15be	-0.18660638
33	0xbe82ecad	-0.25571194
34	0x3eabb409	0.33535793
35	0xbeb46ab2	-0.35237652
36	0xbe6a4498	-0.22877729
37	0xbf07c806	-0.53039587
38	0x3ec8e96a	0.3924058
39	0xbf1686a5	-0.587992
40	0x3e06fdda	0.13182774
41	0x3ec6c371	0.38820985
42	0x3df5ef8c	0.120085806
43	0x3def6e1f	0.11690926
44	0xbefa3375	-0.48867384
45	0x3e99bb41	0.30025676
46	0x3f1234da	0.57111895
47	0xbee146ba	-0.43999273
48	0xbea2c8ff	-0.31793973
49	0xbe9e152c	-0.30875528
50	0x3d02d4e9	0.03194133
51	0x3e25233c	0.16126722
52	0x3ef74b8f	0.48299834
53	0x3ecaa4b3	0.3957878
54	0x3eb18c74	0.3467747
55	0x3f229be6	0.6351913
56	0x3e8f6697	0.28007957
57	0xbf0002b5	-0.5000413
58	0x3d139f5b	0.036040645
59	0x3e5608f0	0.20901847
60	0xbe20662d	-0.15663977
61	0x3ee20900	0.4414749
62	0x3ee13750	0.43987513
63	0xbe968340	-0.2939701
64	0x3eb771a4	0.35828888
65	0x3f0d8418	0.55279684
66	0x3e1557d6	0.14584288
67	0x3ec335a1	0.38126853
68	0x3d31dc97	0.04342326
69	0xbecfcfa4	-0.40588105
70	0xbcddd6c8	-0.027079955
71	0x3ead1b05	0.33809677
72	0x3e89cdd0	0.26914835
73	0x3ecc5519	0.39908674
74	0x3d090083	0.033447754
75	0xbf14c167	-0.5810761
76	0xbe054b75	-0.13017066
77	0x3ee89737	0.45427868
78	0xbee38d6c	-0.44443834
79	0x3edc00f8	0.4296949
80	0x3ec352fc	0.3814925
81	0xbdb01f50	-0.085997224
82	0x3db79c48	0.08965355
83	0xbefde071	-0.49585298
84	0x3cb8302c	0.022483908
85	0xbcb36588	-0.021899
86	0x3ee15dc3	0.44016847
87	0xbddb751e	-0.10715698
88	0xbe8d9070	-0.2764926
89	0x3e6d23f4	0.23158246
90	0xbeb515c3	-0.35368165
91	0xbefb7771	-0.49114564
92	0x3e9218ac	0.28534448
93	0x3e875d63	0.26438436
94	0x3f0043d5	0.50103503
95	0xbf0cafeb	-0.5495593
96	0xbe93d4f0	-0.28873396
97	0x3bdf1b9a	0.0068087103
98	0xbe2cea15	-0.1688617
99	0x3ea7be94	0.32762587
100	0xbea70657	-0.32622024
101	0xbe43b5de	-0.19112346
102	0xbe4b981b	-0.19882242
103	0xbeea757f	-0.45792767
104	0xbeb9bf2a	-0.3627866
105	0x3f1f7b24	0.6229727
106	0xbefb0c9e	-0.49033064
107	0x3f09aa0d	0.537751
108	0xbecfcf4d	-0.40587845
109	0xbd3e1d14	-0.04641445
110	0xbf19ae83	-0.6003191
111	0xbeedd7bc	-0.46453655
112	0x3eba08a9	0.36334732
113	0x3d3486e3	0.04407395
114	0xbec864ab	-0.39139304
115	0x3e568eae	0.20952865
116	0xbea1c507	-0.31595632
117	0xbcea57cc	-0.028606318
118	0xbecc8bac	-0.3995031
119	0xbedd9e5a	-0.43284875
120	0xbedc8067	-0.43066713
121	0xbe84fe14	-0.25975096
122	0xbed3b1e5	-0.4134666
123	0xbd3361e3	-0.043794524
124	0x3f097538	0.53694487
125	0xbef5c784	-0.4800378
126	0x3f08f8cb	0.5350463
127	0x3e1e191e	0.15439269
128	0xbe982058	-0.29712176
129	0x3eb85387	0.36001226
130	0x3f11d9b3	0.5697281
131	0x3e12f887	0.14352618
132	0xbe9f67b0	-0.31133795
133	0x3ec2a543	0.3801671
134	0x3efc852c	0.49320352
135	0x3f1a2769	0.60216385
136	0x3eaafe92	0.33397347
137	0x3d04629e	0.03232061
138	0xbd6ef42b	-0.058338325
139	0x3e3ad27b	0.18244354
140	0xbeb57bd8	-0.35446048
141	0xbe4f2b9c	-0.2023148
142	0x3ded513b	0.11587759
143	0xbe4c9d68	-0.1998192
144	0x3e547e33	0.20751266
145	0xbe6f685b	-0.23379652
146	0x3de708a8	0.11280948
147	0xbe8e348f	-0.27774474
148	0xbe8f12d7	-0.2794406
149	0xbd529c05	-0.051418323
150	0x3d08125f	0.033220645
151	0xbea52612	-0.32255608
152	0x3d4b7b91	0.04967839
153	0x3eabffa9	0.3359349
154	0xbef62667	-0.48076174
155	0xbe1841e7	-0.1486889
156	0xbdb7f2b1	-0.089818366
157	0x3ea5ef53	0.32409152
158	0x3e3f1180	0.1865902
159	0xbcbbc8ef	-0.022922961
160	0xbe9f1da1	-0.31077293
161	0x3e3ea30e	0.18616888
162	0x3eba3de8	0.36375356
163	0x3eef964d	0.46794358
164	0x3cf3035e	0.029664692
165	0x3e62591e	0.22104308
166	0x3e1df6d5	0.1542619
167	0x3dda15e2	0.10648705
168	0xbf01d41a	-0.50714266
169	0x3ef86913	0.48517665
170	0x3eb2e349	0.3493903
171	0x3ee0fc97	0.4394271
172	0x3e4e14c2	0.20125106
173	0xbc8bb969	-0.017056184
174	0x3eae65d4	0.34062064
175	0x3c52c794	0.012864966
176	0x3da64fa4	0.08120659
177	0x3ec7bcd0	0.3901124
178	0x3eb422fd	0.35182944
179	0x3e1e5f7a	0.15466109
180	0xbe0bb481	-0.13643076
181	0x3efd9b41	0.49532512
182	0xbe6ded76	-0.23235115
183	0xbe92e9fb	-0.28694138
184	0xbeec475e	-0.461482
185	0xbe8f5773	-0.27996406
186	0xbe69f68b	-0.22847955
187	0xbd8a79d8	-0.06761521
188	0xbdf5155e	-0.11966966
189	0xbe68b674	-0.2272585
190	0x3efa829f	0.4892778
191	0x3eb051be	0.34437364
192	0x3de10cc2	0.109887615
193	0xbef40a6f	-0.4766421
194	0x3c84c6fc	0.016208164
195	0xbee73eb3	-0.45165023
196	0x3e822b26	0.25423545
197	0x3f095014	0.53637815
198	0x3db26351	0.08710349
199	0x3efa1db7	0.48850796
200	0x3e50b1b2	0.20380285
201	0x3de42d04	0.111413985
202	0x3edac83b	0.4273089
203	0x3c958d24	0.018255778
204	0x3f13684c	0.5758102
205	0x3c7ddf00	0.015495062
206	0x3d0ea1b0	0.034822166
207	0x3d13037e	0.035892002
208	0x3e3b8b70	0.1831491
209	0xbea03633	-0.3129135
210	0x3e5e8436	0.21730122
211	0xbd01a797	-0.031653967
212	0xbd89d211	-0.0672952
213	0xbc0982a9	-0.008392968
214	0xbe5e01ec	-0.2168042
215	0x3f069868	0.52576303
216	0xbd688a24	-0.056772366
217	0x3eb5c031	0.35498193
218	0xbdfee45f	-0.12445902
219	0xbd91d08e	-0.07119857
220	0x3e2c4516	0.16823229
221	0x3d3083f9	0.04309461
222	0xbeb82ac7	-0.35970137
223	0xbd95d423	-0.073158525
224	0x3e784a73	0.2424715
225	0xbecd63eb	-0.40115294
226	0x3eca21a0	0.3947878
227	0xbeb29ab9	-0.3488367
228	0xbe8962fa	-0.26833326
229	0xbd17956b	-0.03700773
230	0x3e313a89	0.17307486
231	0xbec0f251	-0.37684873
232	0x3f172c8b	0.5905234
233	0xbee36c8e	-0.44418758
234	0xbec730ef	-0.3890452
235	0xbe970439	-0.2949541
236	0xbcc7d417	-0.024393125
237	0x3dd54ed2	0.104154244
238	0x3e9da5f6	0.3079068
239	0x3ebd0a84	0.36922085
240	0x3f00a134	0.50245976
241	0x3d7ba5e4	0.061437503
242	0xbec75ef2	-0.38939625
243	0xbdb7f520	-0.08982301
244	0xbec0f29e	-0.37685102
245	0xbeee201b	-0.4650887
246	0xbe9bfb1e	-0.30465025
247	0x3edf4a12	0.436112
248	0xbe0e9111	-0.13922526
249	0x3f04ff55	0.51952106
250	0xbe909bcf	-0.28243873
251	0xbd5e0935	-0.054208
252	0x3e0062b0	0.12537646
253	0xbe2ff3b8	-0.17182815
254	0xbe0cc191	-0.13745715
255	0xbe152619	-0.14565314

model.4.bias f4 [20]
0	0xbd94e09f	-0.072694056
1	0x3d13c5f7	0.036077466
2	0x3c63d732	0.013906287
3	0xbd3a6fba	-0.045516707
4	0xbccef77b	-0.025264492
5	0xbc3527eb	-0.0110568805
6	0x3d667e9b	0.056273084
7	0x3d42e618	0.047582716
8	0xbd072a67	-0.032999422
9	0xbc5a6dd0	-0.013331845
10	0x3ca54578	0.020174727
11	0x3cd7ea3c	0.026356809
12	0xbaac491b	-0.0013144346
13	0x3bee31ce	0.007269121
14	0x3dc032cf	0.09384691
15	0xbe45e690	-0.19326234
16	0x3a845323	0.0010095577
17	0x3bced1e6	0.006311643
18	0x3c8780fb	0.016540995
19	0xbcc85604	-0.024455078

model.6.weight f4 [1, 20]
0	0x3eab0308	0.3340075
1	0x3e314569	0.17311634
2	0x3f176bf4	0.591491
3	0xbe2b1cbd	-0.16710182
4	0xbed8702f	-0.4227309
5	0xbe9c20f5	-0.30493894
6	0x3e728a4f	0.23685573
7	0xbe83c776	-0.25738114
8	0xbe20c858	-0.15701425
9	0xbe8dc2cf	-0.2768769
10	0x3d211ca3	0.03933395
11	0x3f06fd09	0.5272985
12	0xbe279cf3	-0.16368465
13	0xbee0f984	-0.43940365
14	0xbeac185f	-0.33612344
15	0x3eaf954b	0.3429359
16	0x3eda6b5a	0.42660028
17	0x3ebc6303	0.3679429
18	0x3df38842	0.118912235
19	0x3de17d61	0.11010242

d f4 [921]
0	0xb283c0fa	-1.5338163e-08
1	0xb2306100	-1.0266604e-08
2	0xb22635e1	-9.674722e-09
3	0x3270b9bb	1.4012069e-08
4	0xb272b032	-1.4126316e-08
5	0x31072554	1.9666304e-09
6	0xb1949fa7	-4.3255173e-09
7	0xb09ea9e5	-1.15443e-09
8	0xb2831733	-1.5260957e-08
9	0xaef9dd11	-1.1362478e-10
10	0xb2fff29e	-2.9796237e-08
11	0x3155cdb5	3.111251e-09
12	0x3275799c	1.4288528e-08
13	0x32ae9a76	2.0326507e-08
14	0x310447fb	1.9249444e-09
15	0x32de039b	2.5845841e-08
16	0xb247dab2	-1.163305e-08
17	0x3205409d	7.75631e-09
18	0x3309cdfc	3.208514e-08
19	0xb286ab62	-1.5677589e-08
20	0x30abfc15	1.2513534e-09
21	0xb1c307ed	-5.676148e-09
22	0xaffc946b	-4.594399e-10
23	0x32bed1ca	2.2214312e-08
24	0x32a6179b	1.9335678e-08
25	0xb2cc5d66	-2.3791198e-08
26	0xb2d5ffa5	-2.4912717e-08
27	0x30e5b0fd	1.6712246e-09
28	0x31d9f850	6.343761e-09
29	0xb137bb77	-2.6736566e-09
30	0xb1e278ec	-6.591213e-09
31	0x31cbed51	5.9350573e-09
32	0x2f34a7a1	1.6430458e-10
33	0x32a5ac5c	1.9286908e-08
34	0x322bb919	9.995596e-09
35	0xb1868f6a	-3.9162176e-09
36	0xb2bf22a1	-2.2251074e-08
37	0x324dd7c0	1.1981626e-08
38	0x325563cd	1.2420924e-08
39	0xb20d0f91	-8.21082e-09
40	0xb29b918a	-1.8110558e-08
41	0x329827e2	1.7713266e-08
42	0x32b4f3ce	2.1065627e-08
43	0xb2a02d01	-1.8646917e-08
44	0xb210e660	-8.434284e-09
45	0xb2b08cda	-2.0553149e-08
46	0x32d213c4	2.4456206e-08
47	0x32e800af	2.7008666e-08
48	0x32449886	1.1443381e-08
49	0x30771af2	8.989637e-10
50	0x30972352	1.0996735e-09
51	0xb33c99ab	-4.391192e-08
52	0x32a3de6e	1.9076847e-08
53	0xb20e5a56	-8.286028e-09
54	0x32f1bf5d	2.8143115e-08
55	0xb2e0c506	-2.6166628e-08
56	0x3228a39c	9.8160875e-09
57	0x31ee0f26	6.928434e-09
58	0x3382ceb1	6.091194e-08
59	0x3155a500	3.108937e-09
60	0x323d4879	1.1017726e-08
61	0x322ec5b0	1.0173082e-08
62	0x31bf2d7d	5.564003e-09
63	0x31a98c49	4.934496e-09
64	0x31e03619	6.525408e-09
65	0x318d6cf0	4.116025e-09
66	0x31a238dc	4.7212847e-09
67	0x307a9e5b	9.1174507e-10
68	0x313e2cd2	2.7674116e-09
69	0xb0ef8623	-1.7427663e-09
70	0xb1d56ccf	-6.211486e-09
71	0x31f73be7	7.1954562e-09
72	0xb21c2ca0	-9.090542e-09
73	0x3223da54	9.537491e-09
74	0xb20a05b2	-8.033952e-09
75	0x31dffa97	6.518643e-09
76	0xb19b4035	-4.518393e-09
77	0x31de4741	6.469151e-09
78	0xb1724b55	-3.5258456e-09
79	0x321761cd	8.811594e-09
80	0x30e14ad3	1.6392171e-09
81	0x32108f53	8.414491e-09
82	0x327faa09	1.4881615e-08
83	0x32649545	1.3305287e-08
84	0x32219c66	9.406994e-09
85	0xb16b309a	-3.4224628e-09
86	0xb27d2f2f	-1.47372665e-08
87	0xb2a030cc	-1.8648642e-08
88	0x32d61aae	2.4925011e-08
89	0x32128d86	8.530497e-09
90	0xb253da8e	-1.233151e-08
91	0x31f23978	7.0496604e-09
92	0xb166faca	-3.3611962e-09
93	0x320d5ace	8.227927e-09
94	0xb093b232	-1.0746304e-09
95	0xb2164c63	-8.7485175e-09
96	0xb207fcd4	-7.915521e-09
97	0x31e9302e	6.78667e-09
98	0x320bf122	8.145692e-09
99	0x323ab74e	1.0868304e-08
100	0xb2e89f50	-2.7080802e-08
101	0xb29be63e	-1.8149077e-08
102	0xb1bc38aa	-5.477962e-09
103	0xb27511db	-1.4264937e-08
104	0xb2506880	-1.2130954e-08
105	0xb1d95c1d	-6.3260033e-09
106	0xb22b4fc7	-9.971649e-09
107	0xb157fef3	-3.143154e-09
108	0xb188da0c	-3.98291e-09
109	0x31ad61b5	5.0460707e-09
110	0x3291310b	1.6902524e-08
111	0xb2c921cd	-2.341485e-08
112	0x326bf529	1.3734543e-08
113	0xb27bef85	-1.4664583e-08
114	0x32b22606	2.0739218e-08
115	0xb2a55379	-1.9246487e-08
116	0x31d97523	6.328848e-09
117	0xb22971ee	-9.862999e-09
118	0x3210993b	8.416744e-09
119	0xb29c81e3	-1.8219856e-08
120	0x32137f9e	8.585543e-09
121	0x32319610	1.0336876e-08
122	0x315e42c5	3.2343206e-09
123	0x319b4298	4.5186646e-09
124	0x30cc1e77	1.4851612e-09
125	0x302f7b86	6.3840166e-10
126	0x312f2d32	2.5491542e-09
127	0x30e1676c	1.6400299e-09
128	0x31e55a3b	6.675035e-09
129	0x30b25498	1.2975248e-09
130	0xb1ddff46	-6.4609678e-09
131	0x31b4a6cb	5.2576516e-09
132	0xb237a452	-1.0689364e-08
133	0x322a2c28	9.905342e-09
134	0xb12d2e02	-2.5200966e-09
135	0x3150e6ab	3.0399103e-09
136	0xb02a08b4	-6.185801e-10
137	0x30dc4610	1.602702e-09
138	0xaf3e9a1e	-1.7335153e-10
139	0x31cf3b86	6.03126e-09
140	0xb213f888	-8.613036e-09
141	0xb26201e0	-1.3155358e-08
142	0xb1c853fe	-5.830315e-09
143	0xb1981c4e	-4.427e-09
144	0xb191bb28	-4.2413326e-09
145	0x2f949746	2.702853e-10
146	0x3178d504	3.6209835e-09
147	0x30a3b467	1.1911084e-09
148	0x311005f9	2.0958153e-09
149	0xb0c88b88	-1.4591572e-09
150	0x30d5474c	1.5518054e-09
151	0xb1b7340f	-5.3319194e-09
152	0x3142acf0	2.832902e-09
153	0xb1d9c12a	-6.3374914e-09
154	0x31840c64	3.8431143e-09
155	0xb148e156	-2.923192e-09
156	0x312d061c	2.5178286e-09
157	0xb09f4317	-1.1587841e-09
158	0x310ba87d	2.0322937e-09
159	0xb24a60ea	-1.1779983e-08
160	0x31fc5350	7.343637e-09
161	0xb11b3626	-2.2586248e-09
162	0xb13040da	-2.5648235e-09
163	0xb0ca31f1	-1.4711629e-09
164	0x3165c48b	3.3435608e-09
165	0x31346acd	2.6254157e-09
166	0x3212b4c1	8.539417e-09
167	0x30b5c4e6	1.3225445e-09
168	0xb1251465	-2.4022253e-09
169	0x304d015b	7.458049e-10
170	0x3196f82e	4.3937893e-09
171	0xb12e604e	-2.5375075e-09
172	0x3218b820	8.88943e-09
173	0xb20f68c3	-8.347516e-09
174	0xb20891f2	-7.949426e-09
175	0x3205ed8e	7.795633e-09
176	0x300f9964	5.224108e-10
177	0x31b00bb6	5.1236055e-09
178	0xb1276fa2	-2.4365154e-09
179	0x2f31f81e	1.6186205e-10
180	0xb20db636	-8.24871e-09
181	0xb101417f	-1.88092e-09
182	0x31d4561c	6.1798016e-09
183	0xb1816522	-3.7658916e-09
184	0xb09a7709	-1.1238807e-09
185	0xb0a7fcad	-1.2222664e-09
186	0x3204f90e	7.74004e-09
187	0x31964cb7	4.374296e-09
188	0x3102df31	1.904436e-09
189	0x31f0149e	6.987263e-09
190	0x311de5b8	2.2977087e-09
191	0xb20a31fd	-8.044023e-09
192	0x2ef1a5ee	1.0988886e-10
193	0x2e401f4e	4.368355e-11
194	0x31c9361c	5.8560214e-09
195	0xb0fdb7f4	-1.8460455e-09
196	0x2e7328fe	5.528821e-11
197	0x315ec1d2	3.2415426e-09
198	0x31ab8c6a	4.9927182e-09
199	0xb14f661f	-3.0180514e-09
200	0x312164fa	2.3485982e-09
201	0xb1ccc8c5	-5.9600063e-09
202	0xb1bae70b	-5.439579e-09
203	0xb1b3d966	-5.234301e-09
204	0xb13780c7	-2.6703206e-09
205	0xb16fc258	-3.488955e-09
206	0xafd323d9	-3.8406148e-10
207	0xb1f447ed	-7.1095116e-09
208	0xb05630c5	-7.792205e-10
209	0x30f81369	1.8049892e-09
210	0x31e9086a	6.782149e-09
211	0xb25632be	-1.2467977e-08
212	0x32aba432	1.9981687e-08
213	0xb26374b5	-1.3239675e-08
214	0xb0fa42d3	-1.8208887e-09
215	0x3148b2ac	2.9205394e-09
216	0x31390833	2.6925704e-09
217	0xb14a1d97	-2.9411689e-09
218	0x313192b9	2.5840292e-09
219	0xb19148f6	-4.22835e-09
220	0x3173bc1a	3.5468077e-09
221	0xafdd69c4	-4.0274817e-10
222	0xb1893a46	-3.9938497e-09
223	0xb1baf967	-5.4416662e-09
224	0x31127045	2.1309614e-09
225	0x326a7c44	1.3648847e-08
226	0xb19306ae	-4.2790225e-09
227	0x328291af	1.5200241e-08
228	0xb14ae4c0	-2.9524898e-09
229	0xb22b8682	-9.9840936e-09
230	0x312071a8	2.334767e-09
231	0xb1bf482d	-5.567037e-09
232	0x321a39c2	8.977112e-09
233	0xb1a8abdc	-4.9089817e-09
234	0xb1a2cc7f	-4.738069e-09
235	0x31f42cbb	7.10642e-09
236	0xb080badd	-9.366335e-10
237	0x3151bb44	3.051995e-09
238	0xb2a16e08	-1.8792903e-08
239	0xb0e192b6	-1.6412602e-09
240	0xb04f5b05	-7.543551e-10
241	0x3103a7a1	1.9158295e-09
242	0xb01a1138	-5.6049343e-10
243	0x2fa58a4c	3.011159e-10
244	0xb0abe63b	-1.2507323e-09
245	0xb11167cc	-2.1159279e-09
246	0xb23fe3e6	-1.1169481e-08
247	0xb24ec6d0	-1.2035983e-08
248	0x31858f61	3.8871097e-09
249	0xb11326a5	-2.1413282e-09
250	0xb160cebf	-3.2713812e-09
251	0x3000d932	4.687478e-10
252	0xb1d75fa1	-6.2681953e-09
253	0x31740770	3.55109e-09
254	0x31779597	3.6028263e-09
255	0xb20f3b4a	-8.337176e-09

old_dirs f4 [921]
0	0xb4e78d26	-4.3129802e-07
1	0xb648792a	-2.987285e-06
2	0x342efad1	1.6296259e-07
3	0x35ff6b9b	1.9030298e-06
4	0xb4aeff53	-3.2595798e-07
5	0x37d6290d	2.5529904e-05
6	0x34a6b846	3.1053986e-07
7	0xb6ad5712	-5.165938e-06
8	0x35af158a	1.3044785e-06
9	0x374943c5	1.1996312e-05
10	0xb60bb5ba	-2.0818393e-06
11	0xb7873e21	-1.6122185e-05
12	0x3613e5d6	2.203849e-06
13	0x36ee34e8	7.099112e-06
14	0xb5c9c241	-1.5032202e-06
15	0x38216c38	3.8486178e-05
16	0x35e30678	1.6914701e-06
17	0xb72cc4f5	-1.02978565e-05
18	0xb6780bda	-3.6961778e-06
19	0x375b63a1	1.3076614e-05
20	0xb48555fd	-2.4835745e-07
21	0x367eb94d	3.7956809e-06
22	0xb5cfbbe5	-1.5477386e-06
23	0x36d386d0	6.3039843e-06
24	0x3525d66e	6.1779326e-07
25	0xb67c37e8	-3.7583468e-06
26	0x3630c0b0	2.6338203e-06
27	0xb77ad205	-1.495006e-05
28	0xb656a907	-3.1986872e-06
29	0xb7445c56	-1.1704009e-05
30	0xb5fb9d8d	-1.8746811e-06
31	0xb68dd86e	-4.227323e-06
32	0x355e5f85	8.2840444e-07
33	0x3686aaf8	4.0134146e-06
34	0xb560bc60	-8.3720624e-07
35	0xb314947a	-3.4593974e-08
36	0xb60fc4e6	-2.142327e-06
37	0xb802f6e2	-3.1224343e-05
38	0x343c6e46	1.7548982e-07
39	0xb687210c	-4.0271607e-06
40	0xb639c499	-2.7681583e-06
41	0x35bd2be7	1.4094375e-06
42	0x37c80dc6	2.3848272e-05
43	0xb6a464de	-4.8993234e-06
44	0x373e413c	1.1340071e-05
45	0xb78341bd	-1.5647029e-05
46	0x36db2526	6.5310333e-06
47	0x381b47d3	3.702177e-05
48	0xb7214d97	-9.614413e-06
49	0x374761d9	1.1884106e-05
50	0x36743c30	3.6393867e-06
51	0x36bf3673	5.6985823e-06
52	0xb65bbea9	-3.2744522e-06
53	0xb758af99	-1.2915488e-05
54	0xb732337a	-1.0621612e-05
55	0xb677d4aa	-3.6929655e-06
56	0x366e7eef	3.5538649e-06
57	0x34456944	1.838535e-07
58	0xb7ff7423	-3.045245e-05
59	0xb66f4885	-3.5655987e-06
60	0xb66765ca	-3.4480931e-06
61	0xb679b004	-3.7206346e-06
62	0xb62acc9f	-2.545108e-06
63	0xb67bf2bd	-3.7543207e-06
64	0xb60ae2b7	-2.0695568e-06
65	0x344a92b5	1.8866088e-07
66	0xb621f078	-2.413084e-06
67	0x3659f33e	3.2477105e-06
68	0xb68426ac	-3.9384086e-06
69	0xb5b6af06	-1.3610995e-06
70	0x3685753f	3.977358e-06
71	0xb6839230	-3.9211227e-06
72	0x3683bb50	3.9259103e-06
73	0xb67fa075	-3.809136e-06
74	0x3630cf9e	2.6346893e-06
75	0xb61d27b8	-2.3417942e-06
76	0x35a306de	1.2146445e-06
77	0xb5f821b1	-1.8487245e-06
78	0xb5cf8dc8	-1.5463966e-06
79	0xb66d5d3e	-3.5370026e-06
80	0xb7a9eb98	-2.0256077e-05
81	0xb7aa5b7c	-2.030818e-05
82	0xb74ac7e0	-1.2086675e-05
83	0xb78c5e15	-1.673311e-05
84	0xb7654c23	-1.3667191e-05
85	0xb6f5bf88	-7.323866e-06
86	0xb7977cec	-1.8058774e-05
87	0x36a9d8b6	5.061821e-06
88	0xb76d814c	-1.4156405e-05
89	0xb4ed15d1	-4.4160564e-07
90	0x379307fe	1.7527487e-05
91	0xb7a748de	-1.9941883e-05
92	0x37a8cc6f	2.0122357e-05
93	0xb7a2a8b3	-1.9390462e-05
94	0x3795e4a3	1.7868651e-05
95	0xb795365c	-1.7787497e-05
96	0x370762b3	8.069607e-06
97	0xb7644556	-1.36060025e-05
98	0x3641fb39	2.8905472e-06
99	0xb7a050dc	-1.911114e-05
100	0x37ba2395	2.2189497e-05
101	0x37bd6a70	2.258012e-05
102	0x37697506	1.3915129e-05
103	0x37a59e53	1.9743258e-05
104	0x3774c8ef	1.4590317e-05
105	0x36ca69e9	6.0323987e-06
106	0x37a04119	1.91038e-05
107	0xb71b9363	-9.273036e-06
108	0x3796b050	1.7963495e-05
109	0x361ddf9e	2.3524985e-06
110	0xb7ae5cd2	-2.078564e-05
111	0x37be0de1	2.2656228e-05
112	0xb7bf05fe	-2.2771765e-05
113	0x37b84af1	2.1969407e-05
114	0xb7a01d93	-1.9087258e-05
115	0x379d81af	1.8776247e-05
116	0xb7102d2c	-8.593586e-06
117	0x376eb80b	1.4228756e-05
118	0xb48cb516	-2.620879e-07
119	0x37b2c9e8	2.1313273e-05
120	0xb5e95e9f	-1.7387391e-06
121	0xb5f772a1	-1.8436295e-06
122	0xb599cbf1	-1.1458743e-06
123	0xb5de67b6	-1.6570473e-06
124	0xb599834b	-1.14376e-06
125	0xb4d57f55	-3.9766988e-07
126	0xb5bf5dde	-1.4257928e-06
127	0x356a9e8e	8.740252e-07
128	0xb5d0763d	-1.553162e-06
129	0xb489c8ab	-2.5664244e-07
130	0x35ec6d5e	1.76152e-06
131	0xb5fd60e5	-1.8878169e-06
132	0x36003f15	1.9110205e-06
133	0xb5f58796	-1.8293383e-06
134	0x35c456b9	1.4628378e-06
135	0xb5bc5bf1	-1.403385e-06
136	0x3535d316	6.7734925e-07
137	0xb593d1f2	-1.1013456e-06
138	0xb3d20caf	-9.781194e-08
139	0xb5e86811	-1.7315634e-06
140	0x3541b3c0	7.2159673e-07
141	0x353f8090	7.134013e-07
142	0x34f71594	4.6023035e-07
143	0x3523f42f	6.1077566e-07
144	0x34fe61ba	4.7382292e-07
145	0x345a6401	2.0339213e-07
146	0x3531a83f	6.618247e-07
147	0xb49cbf6a	-2.9196536e-07
148	0x351c8e45	5.832156e-07
149	0x33b29dd4	8.31748e-08
150	0xb52d0b34	-6.4463825e-07
151	0x35360b22	6.7816484e-07
152	0xb53d1b30	-7.044755e-07
153	0x3539bceb	6.919278e-07
154	0xb527a032	-6.2445463e-07
155	0x3527a1ed	6.244798e-07
156	0xb49506b8	-2.77583e-07
157	0x3502c6cd	4.8718067e-07
158	0x31f18208	7.028806e-09
159	0x3533a5fd	6.692424e-07
160	0xb48b3b36	-2.593385e-07
161	0x340af1ac	1.2940171e-07
162	0x3500dbfc	4.8003835e-07
163	0x357c85e0	9.407213e-07
164	0xb4f82888	-4.622309e-07
165	0xb5f123f9	-1.7966369e-06
166	0xb58d21fc	-1.0515209e-06
167	0xb639d78f	-2.769262e-06
168	0x35e88218	1.7323209e-06
169	0x35ce6799	1.5378347e-06
170	0xb58f69c2	-1.068511e-06
171	0x34fddc24	4.7285096e-07
172	0xb4ff8044	-4.7590777e-07
173	0x34fba865	4.6874916e-07
174	0x35444753	7.311948e-07
175	0xb5929368	-1.0920749e-06
176	0x349497a2	2.7677476e-07
177	0xb53a8831	-6.9488584e-07
178	0x362641da	2.4774258e-06
179	0x341a1c44	1.435265e-07
180	0x350999b6	5.1260156e-07
181	0x3507a086	5.052501e-07
182	0x34b284a1	3.3251584e-07
183	0x350799d6	5.051528e-07
184	0x349e54d0	2.9491503e-07
185	0xb328a744	-3.9267675e-08
186	0x34c2dd5f	3.6296385e-07
187	0xb4fdd81f	-4.728217e-07
188	0x35026a02	4.8583036e-07
189	0x3447b775	1.860006e-07
190	0xb5081955	-5.070081e-07
191	0x350ed080	5.320253e-07
192	0xb5043f3e	-4.926586e-07
193	0x35032bb3	4.8864894e-07
194	0xb4d8b2aa	-4.036313e-07
195	0x34ca9148	3.7731138e-07
196	0xb4371d8e	-1.7053955e-07
197	0x347e6061	2.3690656e-07
198	0x3466491c	2.1447016e-07
199	0x3505cf23	4.9847785e-07
200	0x36187b33	2.2721476e-06
201	0x3614476c	2.2095292e-06
202	0x359aa4b1	1.1521826e-06
203	0x35b68b12	1.3600531e-06
204	0x35e47390	1.7020957e-06
205	0x35d5113b	1.5874751e-06
206	0x361a1913	2.2962383e-06
207	0x355f104f	8.3097706e-07
208	0x353a6f28	6.9452153e-07
209	0xb52f3bd6	-6.5279653e-07
210	0xb5ba9151	-1.3900373e-06
211	0x3602cdaa	1.9491222e-06
212	0xb609e47c	-2.0547586e-06
213	0x360468d5	1.9730553e-06
214	0xb6125577	-2.1805442e-06
215	0x3616c779	2.246785e-06
216	0xb588b413	-1.0185198e-06
217	0x35f6a433	1.8376217e-06
218	0xb5b9d071	-1.3844239e-06
219	0x3608898a	2.0345637e-06
220	0xb7c2c94e	-2.3220342e-05
221	0xb7c625bd	-2.3621013e-05
222	0xb7729626	-1.4459283e-05
223	0xb7aba3ac	-2.0461004e-05
224	0xb780c6b8	-1.5351325e-05
225	0xb6e07ade	-6.690024e-06
226	0xb7a8c48f	-2.011869e-05
227	0x3718231a	9.068079e-06
228	0xb79a7881	-1.8414345e-05
229	0xb60e16b1	-2.1172857e-06
230	0x37b4a999	2.1536647e-05
231	0xb7c64e5a	-2.3639925e-05
232	0x37c78b3d	2.3787486e-05
233	0xb7c059cd	-2.293e-05
234	0x37a85430	2.0066364e-05
235	0xb7a5ff7f	-1.9788507e-05
236	0x3717d02c	9.04877e-06
237	0xb77c1936	-1.502624e-05
238	0x3556afe6	7.997718e-07
239	0xb7bad8c7	-2.2273873e-05
240	0x377cbb77	1.5064018e-05
241	0x377da838	1.5119142e-05
242	0x3717466d	9.016699e-06
243	0x375172cf	1.2484102e-05
244	0x372a231f	1.0140967e-05
245	0x36b1f729	5.3037843e-06
246	0x375fc514	1.3337722e-05
247	0xb684cfc2	-3.9580927e-06
248	0x37316d2c	1.0575441e-05
249	0x34e70bb0	4.3035607e-07
250	0xb75afcf1	-1.3052705e-05
251	0x37791989	1.4847502e-05
252	0xb77b1b6e	-1.4967152e-05
253	0x37722ec9	1.4435217e-05
254	0xb75e3aa2	-1.3245883e-05
255	0x375c971d	1.3148206e-05
